cgcnndefect/examples/OxideMLpaper1/cgcnn/model-1.00k0_struct_ve_vg_vs/checkpoint.pth.tar (torch, 55486 bytes, 65 tensors)

embedding.weight f4 [8, 102]
000000 ee d3 45 3e b0 39 b8 3c 30 c5 f3 be 50 95 ed 3d
       0.19319126 0.022488445 -0.4761138 0.11600745
000010 8a d8 72 be f3 51 90 bf 60 6d 3f bc 64 ad c5 3e
       -0.23715416 -1.1275009 -0.011683792 0.3860885
000020 2b d3 e4 3e 7b 52 ac 3f 92 2b c4 bc a0 ab 7a bb
       0.44692358 1.3462671 -0.023946557 -0.003824927
000030 c0 29 7e bc fa c4 be be 26 73 13 3d 83 9b b3 bd
       -0.015512884 -0.37259656 0.035998486 -0.08769896
000040 c6 85 80 3e 1f 9b b7 bd 00 8f 3a bb a5 39 c0 bd
       0.2510206 -0.08965134 -0.0028466582 -0.09385995
000050 97 dd f2 3d f3 a1 95 bf 9e a5 88 3e aa ca c8 be
       0.11858671 -1.1690048 0.26688856 -0.3921712
000060 f3 de 42 3e 00 dd 38 bc 64 c8 ff 3c b3 4d 40 be
       0.19030361 -0.011283159 0.031223483 -0.1877964
000070 12 b5 01 bf 5d 3e 93 3e e9 d4 87 3d 58 1d 5c bd
       -0.50666916 0.28758517 0.06632406 -0.053738922
000080 dc 60 ed 3c 85 52 c2 3d 69 4e 94 3e 47 d4 c7 3d
       0.02897685 0.094883956 0.28966072 0.097572856
000090 ec 7a ce bc fd 7b 70 3e f4 cf f2 bc 52 6d 6e 3f
       -0.025205098 0.23484798 -0.029640175 0.9313556
0000a0 c1 9e 9e bd 2a 75 97 bf 62 b2 b2 be 16 d8 22 3d
       -0.07745124 -1.1832631 -0.3490172 0.039756857
0000b0 39 63 b5 3d d4 07 c6 3c 91 0f a7 3d e9 a1 fe be
       0.08856816 0.024173655 0.08157266 -0.49732903
0000c0 b9 8a df bd bc 11 5e be 7e 2b 87 bf 19 ba 8a 3e
       -0.10915131 -0.21686453 -1.0560148 0.27095106
0000d0 9b 60 fb 3e 86 fb 05 3f 93 b2 a3 3f b9 07 82 bd
       0.49097142 0.5233692 1.2788872 -0.06349129
0000e0 dc c2 c4 bd 0c 25 ff 3c f9 75 8c 3d 73 77 90 3e
       -0.09607479 0.031145595 0.06858439 0.28216133
0000f0 35 a1 bf be 11 36 54 be e0 e2 a4 bb 10 83 c1 bd
       -0.3742768 -0.2072375 -0.0050319284 -0.09448826
000100 b7 3a 7e 3e 00 72 33 3c f4 b0 a7 bd 88 a0 70 bc
       0.24827085 0.010952473 -0.08188048 -0.014686711
000110 f4 e7 ca 3c a0 3c 5a 3b 8c ac 97 bd d0 9c 35 bc
       0.024768807 0.0033300295 -0.074059576 -0.01108475
000120 b0 fd a3 3e b9 9a 77 bf bb e9 80 3e ee 4b 7c 3d
       0.32029486 -0.96720463 0.25178322 0.06159585
000130 ec a0 aa bd d8 8f c4 3c dd 4c fe be b1 22 50 3e
       -0.08331475 0.023994371 -0.49668017 0.20325734
000140 10 ae 00 3e 22 a0 23 3e 44 ad ea 3c 4e f5 62 3f
       0.125664 0.15979055 0.028647073 0.88655555
000150 a6 a1 4c bf b6 3e 60 bf 4c f7 60 3e 59 96 6a 3e
       -0.79934156 -0.8759569 0.21969336 0.22908916
000160 24 b2 59 bf 54 0d 79 bd b6 da 80 bd f8 8e c6 bd
       -0.85037446 -0.060803726 -0.06291716 -0.09695238
000170 dd b0 aa 3e 04 ca c7 bc 96 9d 31 3d 8d 74 c6 bd
       0.3333806 -0.02438832 0.043363176 -0.09690199
000180 76 66 de 3f 6d ef 34 bf 4e 94 9f bf 03 fd b1 bf
       1.7375019 -0.70677835 -1.2467134 -1.3905338
000190 a8 15 18 c0 61 5c 83 40 9f 0d f7 bd f6 97 41 3d
       -2.3763218 4.1050267 -0.12063145 0.047264062
0001a0 53 f7 af be 95 e4 58 be 16 50 48 3d d4 54 cc 3e
       -0.3436838 -0.21180947 0.0489045 0.3990847
0001b0 c1 32 c3 bd cf de 1e bf f1 a6 0f bf 8d 78 4f bf
       -0.09531165 -0.6205873 -0.5611411 -0.8104332
0001c0 33 aa a5 3f de de 74 3d aa ad 67 bd 4b 25 fa 3e
       1.2942566 0.059782855 -0.056562103 0.48856577
0001d0 26 81 07 3d d2 9f 4b 3d e9 77 ad be ec 6f 8e bc
       0.03308215 0.049712963 -0.33880547 -0.017387353
0001e0 40 82 ce 3a 68 24 f1 bc 4f 85 46 be 9a 24 4a 3f
       0.001575537 -0.029436305 -0.1938679 0.789621
0001f0 f4 50 01 bf 82 d9 45 bf e3 62 ff 3e 2c aa f7 bc
       -0.5051415 -0.77285016 0.49880132 -0.030232511
000200 95 f5 7e bd 71 28 97 be 1e cf 15 3e 3f 8b bd be
       -0.062245924 -0.29523042 0.1462979 -0.370203
000210 5f a9 94 3f 40 38 3d bc d0 b9 b8 3b 80 d6 9a bc
       1.1614188 -0.011549056 0.005637385 -0.01890111
000220 89 93 40 be 3f 2c 23 bd d8 29 a4 3c 5d 24 50 be
       -0.1880628 -0.03983712 0.020039484 -0.20326371
000230 13 c6 c1 3d 1e ad 60 be 34 ca 1f 3c d1 79 de 3e
       0.09461608 -0.21941039 0.009752799 0.43452314
000240 67 04 06 3e 73 81 cc be b6 d0 5c 3d 0c a7 e4 bc
       0.13087617 -0.39942512 0.05390998 -0.027911685
000250 b0 b3 5d bd 13 11 9f be a1 e6 60 3e 2c f5 d3 3d
       -0.05412644 -0.31067714 0.21962978 0.10349497
000260 dc 37 d5 3e a9 eb 9b be 5d bf 0a bf 1f 76 16 bf
       0.4164418 -0.30453232 -0.5419825 -0.5877399
000270 af f1 56 bf c9 df a6 3f 11 45 8d 3d f0 77 b7 bd
       -0.8396253 1.3037044 0.06897939 -0.08958423
000280 52 ac a1 bd 96 f3 dc 3e 5c 58 e8 be b7 1d 51 be
       -0.078941956 0.4315459 -0.45379913 -0.20421492
000290 f3 dc be 3d 7e 4b 2f 3d 61 e3 b2 be 98 de 79 3c
       0.093194865 0.042796604 -0.349391 0.015250824
0002a0 bd 13 a6 3d 10 1b 14 3c 92 90 3e 3d b7 78 a4 3d
       0.081092335 0.009039655 0.04652459 0.08030837
0002b0 15 6d a4 bd e8 da 1f 3c c1 55 13 bf bd a7 ec 3e
       -0.08028618 0.009756781 -0.57552725 0.46221724
0002c0 64 13 0b be c3 29 7e bd 76 49 44 3d 54 6a e5 bc
       -0.13581616 -0.062051546 0.04792162 -0.028004803
0002d0 61 c5 cb be 8d e2 63 bd 2f e6 0d be bf b1 26 be
       -0.39799026 -0.055635978 -0.1385734 -0.16278742
0002e0 9e e0 9e bd ba e2 17 bf 83 98 48 3f d7 17 71 3e
       -0.07757686 -0.5933033 0.78357714 0.2354425
0002f0 89 59 81 be 9f c7 84 be f0 51 b3 3f f7 43 c6 be
       -0.25263622 -0.2593355 1.400938 -0.38723728
000300 2c 2d 0a bd 38 05 05 bd c8 34 ca be 6b 16 a2 3d
       -0.033734486 -0.03247568 -0.39493394 0.07914432
000310 ef 4a 97 3d bd 2c 8e 3d 35 82 69 3f c6 1c a0 bf
       0.07387339 0.06942127 0.91214305 -1.2508781
000320 e6 21 da be 8b 5a 02 3f 33 d5 a2 bf a7 bd 01 c0
       -0.42603987 0.5091941 -1.2721313 -2.0272005
000330 b6 a8 c1 bd 4a 64 37 bd e2 81 dd be 11 1e 45 bf
       -0.09456007 -0.044773377 -0.43263155 -0.76999
000340 a7 23 10 be 2b c4 f5 be c5 e5 18 bd e9 06 55 bf
       -0.140761 -0.48001227 -0.0373285 -0.8321367
000350 88 7c d6 3f bd 79 33 3f fd 85 24 3f 4a 73 63 3d
       1.6756754 0.7010763 0.6426695 0.05552987
000360 06 59 64 bd ab 7b 4d 3f 9a d3 24 3d 20 83 1f bb
       -0.055748962 0.8026683 0.04024086 -0.0024339631
000370 7b 5a 89 3e b4 3d 85 bd 30 12 07 3c 98 f0 1f 3c
       0.26826844 -0.065059096 0.008244082 0.009761952
000380 6f d9 ae 3e 96 00 f1 be 90 3f 11 3d 42 b9 c4 be
       0.34150264 -0.4707076 0.03546101 -0.3842259
000390 fc d9 6e 3d f1 1c 3d bd 40 c6 57 bd 8a af d0 be
       0.058313355 -0.04617018 -0.0526793 -0.40758926
0003a0 c7 32 9d be 3d 1d 15 3e 51 56 41 3f 8c f1 1b bd
       -0.30702803 0.14561935 0.75522333 -0.038072154
0003b0 fc df 33 bd 60 8f 08 3c f2 73 1b 3e c7 fd 90 bd
       -0.04391478 0.0083349645 0.15180948 -0.07079654
0003c0 2c 2e c8 bc 6c a1 6b 3e 76 4a 1e 3d 64 78 10 3f
       -0.024436079 0.23010796 0.03864523 0.564337
0003d0 cb 35 d6 be 51 d0 57 3e 98 60 92 be 30 15 08 bf
       -0.41837916 0.2107556 -0.2858932 -0.5315733
0003e0 34 14 ce 3c 07 47 90 bd f0 91 ba bd 36 0a d3 be
       0.025156118 -0.070447974 -0.091098666 -0.41218728
0003f0 79 98 a3 bd ed 34 14 be a9 0d fb be 59 ea b0 3e
       -0.07988066 -0.14473315 -0.4903386 0.34553793

embedding.bias f4 [8]
000000 6e c2 da be 7d 5b 2f bf ab 16 41 bf 89 fd 33 bf
       -0.42726463 -0.68498975 -0.75425214 -0.7030874
000010 a1 a3 9d 3e 56 ea e6 be 0a fa 94 3d 74 62 6a be
       0.307889 -0.4510066 0.07274254 -0.2288912

convs.0.fc_full.weight f4 [16, 40]
000000 cd ec 75 bf 75 29 1f 3f 63 93 4d bf 23 4a 4a 3f
       -0.96064454 0.62172633 -0.8030302 0.79019374
000010 37 41 fb 3e c0 e8 9e 3e a0 17 a7 be 8a 40 8a be
       0.49073192 0.3103695 -0.32635212 -0.27002364
000020 b3 aa 78 3f fc f1 a1 bd 04 6f 7c 3f f0 44 36 bf
       0.97135466 -0.07907483 0.98606896 -0.7119894
000030 17 a1 04 bf 69 44 34 bf fe 5c b1 3e 73 06 c0 3e
       -0.51808304 -0.70416886 0.3464126 0.3750492
000040 b0 1d a3 bf d8 ef 6b bf a1 5d ff 3f f9 d1 d4 3f
       -1.2743435 -0.9216285 1.9950448 1.6626579
000050 2a 37 ae 3f cc ab 99 bf 9c 9e 77 bf eb 54 06 40
       1.3610585 -1.2005553 -0.96726394 2.098933
000060 19 ef bc 3f 2a 2a a4 3f af ef a8 bf c2 c5 59 bf
       1.4760467 1.2825367 -1.3198146 -0.8506738
000070 68 43 11 40 8a b1 b8 3f 33 1e bd 3f fb c2 1e bf
       2.2697392 1.4429181 1.4774841 -0.62016267
000080 91 3c 03 bf 6b 4e 5a bf 13 e5 7a bf 30 e5 be 3d
       -0.5126429 -0.85275906 -0.9800579 0.09321058
000090 06 92 f2 3c c2 0c 36 c0 39 bb 76 c0 7d f6 d7 c0
       0.029610645 -2.8445287 -3.8551772 -6.748839
0000a0 37 43 6d 3f 90 28 8c 3f 7d f6 88 be 8a e9 ef 3e
       0.92680687 1.0949879 -0.26750556 0.46857864
0000b0 54 80 c4 3e a1 2a 3d bf 62 9c 05 3e c6 79 38 3f
       0.38379157 -0.7389317 0.13047937 0.7206081
0000c0 0c 7d 31 3f cb 0f d0 3d bf 79 f5 be 44 d4 10 3f
       0.6933143 0.10159262 -0.47944447 0.5657389
0000d0 79 3d ad 3e 06 dc a7 bf f6 df 6d bf a8 19 94 3f
       0.33835962 -1.3114021 -0.9291986 1.157033
0000e0 47 f4 b3 3e 56 75 f8 3e 52 c7 d7 3f ec 8d 2c 3e
       0.35147306 0.4852702 1.6857703 0.16851014
0000f0 65 d0 ad bd bc b1 ff 3e aa a3 37 3f 6b 0c d8 3f
       -0.08487014 0.49940288 0.71734107 1.687879
000100 a1 5b 05 bc de d3 91 be f9 07 a2 3e 5f 7a 09 3f
       -0.008139522 -0.28481954 0.31646708 0.5370235
000110 31 5c dc 3f bc 11 f3 bd f8 cd 22 be c0 fb 62 bf
       1.7215635 -0.11868617 -0.15898883 -0.8866539
000120 7b ca 0b bf b6 73 0f 3d 21 96 e1 3e 6a 58 53 b8
       -0.54605836 0.03502246 0.44059852 -5.0388662e-05
000130 52 96 be 3c 30 6b a8 3f f4 0e 8c 3f f2 f3 82 3f
       0.023265038 1.3157711 1.0942063 1.0230696
000140 7d 6b cf 3e e3 43 b4 3e 2f 81 33 bf 5d f7 ef be
       0.40511695 0.35208043 -0.70118994 -0.4686841
000150 0b b5 07 3e 69 c4 d7 3e c5 75 15 be 25 ed e5 bd
       0.13252656 0.42142037 -0.14595707 -0.11226872
000160 13 9b 79 3b fa 06 42 3f 11 3c b5 3e 8e 3a fc bd
       0.0038086816 0.75791895 0.3539739 -0.12315856
000170 e8 55 1b bf aa 21 c3 be e9 fc f2 3e 56 7c a0 3e
       -0.6067796 -0.3811162 0.4745858 0.3134486
000180 22 f7 18 c0 d3 8d 21 c0 d3 5b 5c c0 f5 81 c0 3f
       -2.3900838 -2.5242813 -3.4431045 1.503966
000190 41 33 01 40 cc 1d 17 c0 b3 40 1f c0 e6 d8 53 c0
       2.0187533 -2.3611937 -2.488324 -3.3101134
0001a0 64 3e ce 3f 75 c6 07 40 ef 1a 16 c0 56 2e 21 c0
       1.611279 2.1214879 -2.345394 -2.5184531
0001b0 00 c0 63 c0 7b ea bd 3f 1d 02 0d 40 33 83 db be
       -3.5585938 1.4837183 2.203254 -0.42873535
0001c0 3f d5 5f bf 4e a1 6b bf 0e e7 06 bf 87 8a 08 be
       -0.8743476 -0.92043006 -0.5269631 -0.13334094
0001d0 78 1f 05 bb 3c 87 4c 3d ae 73 04 3f 4e 1e a8 3e
       -0.0020312946 0.049933657 0.51739013 0.3283562
0001e0 0c 0a c0 be 99 05 73 be db 2e 9e bc bc 87 52 bd
       -0.37507665 -0.23732604 -0.019309452 -0.051398978
0001f0 c5 34 c1 3e c8 e8 44 3e b8 4a 29 3e 77 05 b5 be
       0.37735572 0.19229424 0.16532409 -0.35355732
000200 0f 1a 7b 3d b7 67 ae 3d 5f da e6 bf 96 0a 7d 3e
       0.06130415 0.08515876 -1.8035392 0.2471107
000210 83 c5 c8 3d 1d e3 0d bf 7c 23 06 3f 7b 21 c8 3d
       0.09803297 -0.5542467 0.52397895 0.09772011
000220 0f 70 21 3f 23 8e 72 3f 74 97 1a 40 3e 28 d2 be
       0.6306161 0.94748133 2.415494 -0.41046327
000230 da 93 d0 be 5a 9f fe 3e 19 ab 2f 3f d9 de 19 40
       -0.40737802 0.4973095 0.6862045 2.4042265
000240 6e bd 43 be c7 3f d5 be 3d c0 1a 3f 76 84 54 3f
       -0.1911523 -0.4165022 0.6044958 0.8301462
000250 69 ac 16 40 48 ca a4 be 37 94 1d bf 06 6d 21 bf
       2.354273 -0.32185578 -0.6155428 -0.6305698
000260 3a b0 3b 3f 1f 5e 5a 3f f3 f7 03 3f 23 54 06 be
       0.73315775 0.8529987 0.51550215 -0.13118033
000270 39 c5 ab 3d 15 b3 4f 3f 16 e9 03 3d 41 e9 71 bf
       0.083872266 0.8113263 0.03220471 -0.9449654
000280 d3 cb a9 bf a5 bd 8a 3f f0 b1 87 be cb a0 ca bd
       -1.3265327 1.0839125 -0.26502943 -0.0989395
000290 15 ee 0f bf b5 b9 30 3f c9 02 29 3f a5 30 11 be
       -0.5622266 0.69033366 0.66019875 -0.14178713
0002a0 12 19 9a 3e 0e ad e9 bc 40 b1 07 3e 86 71 8c bf
       0.30097252 -0.028524902 0.1325121 -1.0972145
0002b0 9f 0d 73 be ff 07 00 bf e4 67 ac 3f fb b9 36 3e
       -0.23735665 -0.500122 1.3469205 0.17844383
0002c0 67 7b 83 be a1 66 26 bf e0 09 1a c0 9e fc 30 bf
       -0.25680086 -0.6500035 -2.4068527 -0.69135463
0002d0 5d f2 e3 be 58 a6 83 bb 98 9b f3 be 2a 76 20 c0
       -0.44520846 -0.0040176325 -0.47579646 -2.5072122
0002e0 b1 99 23 bf 43 61 b2 be 43 4b c5 3d 7b 16 0d bf
       -0.6390639 -0.3483983 0.09633496 -0.5511243
0002f0 a5 5a 23 c0 68 73 3d bf 47 46 d1 be 73 46 80 3f
       -2.5524075 -0.7400422 -0.4087393 1.0021499
000300 73 8a 23 3f 8a ed 10 3d e4 b0 26 bf b1 e5 f5 3d
       0.6388313 0.035382785 -0.65113664 0.12006701
000310 db ef 8e bb 21 d0 f1 bf 44 47 a7 bf ce 24 1b bf
       -0.004362089 -1.8891641 -1.3068624 -0.60603034
000320 a2 76 8c be cf 23 03 bf 63 2e ce 3e 8e 10 b7 3e
       -0.2743426 -0.51226515 0.40269765 0.35754818
000330 10 b6 b7 be de 2a 95 3e a2 fe 01 be c4 95 0e bf
       -0.3588109 0.29134268 -0.12694791 -0.55697274
000340 9b 94 2f bf b8 65 4e 3f b9 59 ba 3d 65 61 23 40
       -0.6858613 0.8062396 0.090991445 2.5528195
000350 82 fa de be 8a 4d 53 3d eb 1f 51 3f 78 69 10 40
       -0.43550497 0.05158762 0.8168933 2.2564373
000360 2f 5d 3d 3d 83 13 1a 3e c5 80 10 3f 60 5c 5e 3e
       0.046231445 0.15046506 0.56446487 0.21714926
000370 6c 7f 05 3e 5f c0 b1 bd bd 9d 35 3e 2e ba 36 3f
       0.13036889 -0.0867927 0.17735954 0.7137784
000380 2b 9a 4a 3e 52 27 02 be 54 d4 50 bb 05 ce 45 3e
       0.19785373 -0.12710312 -0.0031864839 0.19316871
000390 ec 49 0f 3f c3 ac 8d 3d aa 05 91 3b 42 09 dc be
       0.5597217 0.06917717 0.004425724 -0.42975813
0003a0 a3 10 0d 3f ac 56 7a 3f bd 50 ec 3e 88 51 b0 bd
       0.5510351 0.977885 0.46155348 -0.08609301
0003b0 3e ac fc 3c f0 71 d0 3f df ea 3b 40 53 15 59 40
       0.03084385 1.6284771 2.9362104 3.3919265
0003c0 f4 dc c3 3e 9c 4f 6c 3e 9d 70 26 3f 3b 68 15 3f
       0.3825451 0.23077244 0.65015584 0.5836217
0003d0 b5 37 a5 3d 67 e6 00 bd d2 b3 68 bf 28 81 00 3f
       0.08067266 -0.03146973 -0.90899384 0.50197077
0003e0 77 be 19 3f 58 ec 91 3e c4 0c 25 bf 11 eb 87 bf
       0.6005625 0.28500628 -0.64472604 -1.0618612
0003f0 f6 ce 64 3e 98 d5 cf be e1 dc 53 bf 96 08 12 3e
       0.22344574 -0.40592647 -0.8275891 0.14261088

convs.0.fc_full.bias f4 [16]
000000 6c 5f 63 be 69 0f 8a be 69 a5 c7 b8 7f 0a 84 3e
       -0.2220437 -0.26964882 -9.5198695e-05 0.25789258
000010 b3 41 b6 bd ae 29 ba bd 30 ef 79 3e f7 4f aa bd
       -0.0889925 -0.09089981 0.24407649 -0.08316033
000020 f5 d8 f3 bd a5 26 8e be 5f fe e2 3d 83 df 95 bd
       -0.11906616 -0.27763858 0.11083674 -0.07318022
000030 6f 56 26 3d 33 8b 1e 3e 3f b6 a6 3e 44 00 e6 ba
       0.040609773 0.15482788 0.32560918 -0.0017547687

convs.0.bn1.weight f4 [16]
000000 17 f8 45 40 f0 22 e5 3f c6 40 2d 40 80 af 0b 40
       3.0932672 1.7901287 2.7070785 2.1825867
000010 36 6b c1 3f e9 49 34 40 ae 41 27 40 12 b4 13 40
       1.5110843 2.817011 2.6133838 2.3078656
000020 bf 7a 87 40 d3 3c d6 3f 3e 1e e8 3f fd f4 49 3f
       4.2337337 1.6737312 1.8134229 0.7888945
000030 95 33 ea 3f d8 38 a8 3f 0c 84 87 3f e6 20 6b 3f
       1.8296992 1.3142347 1.0587173 0.91847074

convs.0.bn1.bias f4 [16]
000000 38 8d a4 bf 20 29 0c 3e 4e 73 46 bf 05 ca ad 3e
       -1.2855597 0.13687563 -0.7751969 0.3394319
000010 d9 d7 2b 3e 29 41 e7 bd a2 88 e5 bd 37 55 cb be
       0.16781558 -0.11291725 -0.11207701 -0.3971345
000020 c6 bf 0c c0 da cb db be 72 27 58 bf 93 09 90 3e
       -2.199205 -0.42928964 -0.8443519 0.28132305
000030 3b d3 01 bf b2 c5 64 bf d1 94 c7 3e 87 07 26 3f
       -0.5071294 -0.8936416 0.38980725 0.64855236

convs.0.bn1.running_mean f4 [16]
000000 8b a8 ac 40 d5 35 94 40 e2 6c 9a c1 57 18 0f 41
       5.395574 4.6315713 -19.303165 8.943442
000010 86 88 8f c1 6d 54 54 3e 39 45 5a c0 e8 70 f7 c0
       -17.941662 0.20735331 -3.410475 -7.7325325
000020 74 de eb 3e cc 40 f6 40 1a a0 a2 c0 87 58 06 c0
       0.46068156 7.69541 -5.0820436 -2.0991533
000030 8a c6 32 c1 64 de 0e 40 d4 7f f0 3f 21 68 fa c0
       -11.173471 2.2323236 1.878901 -7.825211

convs.0.bn1.running_var f4 [16]
000000 5c 21 ee 41 18 52 d1 41 a5 e4 00 41 71 4d db 41
       29.766289 26.165085 8.055821 27.412813
000010 70 db 9e 41 81 60 e4 41 0b dc 81 41 eb b1 30 42
       19.857147 28.547121 16.232443 44.173748
000020 b9 64 09 42 3a 30 a8 41 49 a3 bc 41 0d 71 40 42
       34.348362 21.023548 23.57973 48.1104
000030 d8 02 fa 41 19 58 18 42 58 4f 1f 42 fd 05 66 41
       31.251389 38.086033 39.827484 14.376462

convs.0.bn2.weight f4 [8]
000000 13 40 7b 3f 0e be df 3f 62 aa df 3f 78 c1 c7 3f
       0.98144644 1.7479875 1.7473872 1.5605917
000010 89 56 7e 3f d2 94 0a 40 c5 ed a4 3f 69 fb ba 3f
       0.9935079 2.1653333 1.2885062 1.4607974

convs.0.bn2.bias f4 [8]
000000 3a 77 c4 be f6 e1 3b bf d5 3f 28 bf bc 70 40 bf
       -0.38372213 -0.73391664 -0.657224 -0.7517202
000010 94 6b ba 3e 30 95 c3 be 2f 45 ab 3d f7 ea a6 be
       0.364102 -0.3819976 0.08362805 -0.3260114

convs.0.bn2.running_mean f4 [8]
000000 ad 57 a5 40 98 5f 9a 40 cf df 80 40 ba 03 db 40
       5.1669526 4.824169 4.0273204 6.844205
000010 4b c4 c2 40 75 f3 6d 40 dd 86 f5 40 c9 a5 e1 40
       6.0864615 3.7179844 7.672713 7.0514874

convs.0.bn2.running_var f4 [8]
000000 1c e2 8d 42 ed 2f 44 41 e2 5f 1a 42 0c c8 21 41
       70.94162 12.261701 38.593636 10.11134
000010 b2 03 6e 41 d6 07 ad 40 59 8e 75 41 ad ab 73 41
       14.875902 5.4072065 15.347253 15.229413

convs.1.fc_full.weight f4 [16, 40]
000000 22 d7 87 bf 5a af 28 3f 48 55 e4 3f e2 03 39 3f
       -1.0612528 0.65892565 1.7838526 0.7227155
000010 57 db 15 bf 1c 4f 98 3f 29 58 c9 be 55 06 09 3f
       -0.5853781 1.1899142 -0.39325073 0.53525287
000020 7a a3 4b bf 45 62 1a bf dd 42 dd bd e6 22 71 bf
       -0.7954632 -0.603062 -0.10803769 -0.94193876
000030 cf 76 05 40 9a c9 9a 3e 24 80 af 3f c4 02 c2 bf
       2.0853765 0.30231935 1.371098 -1.5157094
000040 ae 67 56 be be 68 ba 3e 21 06 81 40 da 58 0b 40
       -0.20937988 0.36408037 4.031998 2.177298
000050 ce b2 d2 3f 3b ce e1 be dd 6d 9a 3e 0b 07 7d 40
       1.6460817 -0.44102654 0.30161944 3.9535549
000060 75 3d 1d 40 af 97 bc 3f e0 9a 2d bf 90 64 ac 3d
       2.456876 1.473379 -0.67814445 0.08417618
000070 e0 d0 7d 40 85 1b 1b 40 1c 1f bc 3f fd cb 02 bf
       3.9658737 2.4235547 1.4696994 -0.5109251
000080 84 69 cc 3f 48 d1 d4 3f 97 36 90 bf a0 ba c3 bd
       1.5969701 1.6626368 -1.126666 -0.0955708
000090 ef 09 10 be bd 00 6d 3f 74 31 53 bf 39 d2 53 c0
       -0.1406629 0.9257925 -0.82497334 -3.309706
0000a0 1d c4 53 3e 76 db c7 bf 06 09 3f 3f b0 8c 2a 3e
       0.2068028 -1.5613849 0.74623144 0.1665523
0000b0 f9 9e 15 3e 3e ab f6 be 8e e3 ab 3e 20 e6 11 bf
       0.14611425 -0.48177522 0.33572048 -0.5699177
0000c0 7d 10 1b be 5b 00 c9 be 30 04 dd be 35 e1 80 bf
       -0.15143009 -0.39258084 -0.43167257 -1.0068728
0000d0 ab 7f 01 3f a2 6c 44 3f 49 2e 24 3f b5 fd 99 3f
       0.5058543 0.7672826 0.64133126 1.203055
0000e0 60 a9 ba 3e 3e 4c 05 bb 2d 89 c2 bf 4f 92 81 bf
       0.36457348 -0.0020339633 -1.5198113 -1.0122775
0000f0 38 30 5a bf 0d 52 da 3e d2 cc 09 3e 1c cd c6 bf
       -0.85229826 0.42640725 0.13457039 -1.5531344
000100 95 ce 75 bf 0a 43 08 bf 41 20 b6 3e 0d 7e 24 3e
       -0.96018344 -0.53227293 0.35571483 0.1606371
000110 78 94 cf bf 04 11 7b bf 20 63 0b bf 39 cf be 3f
       -1.6217184 -0.9807284 -0.5444813 1.4906989
000120 f9 d3 b7 3e 18 92 43 bf 23 75 ba bf 08 e7 19 bd
       0.3590391 -0.76394796 -1.4566997 -0.037573844
000130 11 75 cb bd fb 83 ff bf bb aa e9 bf 9f df ea bf
       -0.09934438 -1.9962152 -1.8255228 -1.8349494
000140 74 d9 bb 3e 1b f9 98 3e 2a 8b 81 3e 86 a5 6f 3e
       0.3668934 0.29877552 0.25301486 0.23402986
000150 17 6c bf 3e 71 f6 b3 3c 42 5c 87 bd 70 f6 fc 3e
       0.37387154 0.021968098 -0.06609394 0.49406767
000160 5e 85 2a c0 56 09 a6 3f 6d 2d f1 3e 23 e6 bd bf
       -2.66439 1.2971599 0.4710497 -1.4835857
000170 97 8a 49 bf 92 62 d9 bc c4 41 6f 3e 63 37 23 3f
       -0.78727096 -0.02653626 0.23364931 0.6375639
000180 58 3f 32 3e e3 bf c3 be 11 f1 8a bf ce 38 4d bf
       0.17406976 -0.38232335 -1.0854818 -0.801648
000190 24 39 f8 be ff 85 df 3e 31 f2 1a be 98 65 9c bf
       -0.48481095 0.43656918 -0.15131451 -1.2218504
0001a0 fd 47 20 bf 22 f1 34 bf e4 e5 00 3f 36 56 a1 be
       -0.62609845 -0.7068044 0.50350785 -0.31511086
0001b0 6c 57 98 bf 33 fb 4d bf 42 dc 07 bf d8 93 16 3d
       -1.1901679 -0.80461425 -0.5307046 0.03676209
0001c0 ed 48 63 bf 6d 1a 29 bf 9d e9 07 3f 36 82 20 be
       -0.8878315 -0.6605595 0.5309084 -0.15674672
0001d0 48 5c 11 3d c3 0d 3b c0 01 15 15 c0 93 4b c3 3f
       0.035488397 -2.922715 -2.329407 1.5257438
0001e0 b1 97 d8 3e dd 47 03 bf 5d 82 b6 bf 6c ba a2 be
       0.4230323 -0.5128153 -1.4258534 -0.31782854
0001f0 ad 44 5b 3e 87 8b 52 bf df 04 16 3f 8d 44 47 3e
       0.21412916 -0.8224415 0.5860118 0.19459744
000200 7e e9 3a 3e 34 53 89 3f bc 36 95 3f 72 42 31 3f
       0.18253133 1.0728517 1.1657329 0.6924201
000210 d7 6d b4 3f bc b6 06 3f 21 65 e8 3f a7 71 6b 3e
       1.409602 0.5262258 1.8155862 0.22992574
000220 74 1f 2a 3f 11 43 82 3f 3d e2 3a 40 e9 51 20 3f
       0.66454244 1.0176717 2.9200585 0.62624985
000230 f8 ff 4f 3e 54 52 11 3f dd fb 77 3f ac d0 33 40
       0.20312488 0.5676625 0.9686869 2.8096113
000240 e5 aa 3b 3f f0 3c 68 bd f2 b5 f6 3e e3 1f 76 3f
       0.7330764 -0.05669874 0.48185688 0.96142405
000250 98 f0 35 40 65 b2 31 3f dd e8 b0 3c 77 5f 42 bf
       2.8428097 0.69412833 0.021595413 -0.7592692
000260 96 a4 03 bf 72 ae be bd 53 ee e2 3e 5f fb 79 3d
       -0.51423013 -0.093106166 0.44322452 0.06103074
000270 e4 56 e6 bd 50 32 67 be 8d bf 6c 3f ed 8f f2 3f
       -0.11247042 -0.22577786 0.92479783 1.8950173
000280 6c 03 16 bf 03 ab 55 be b1 e3 8f 3e bc 13 90 bd
       -0.5859897 -0.20866017 0.28103402 -0.07035014
000290 87 bc 54 3e ae 3b 59 bf 8a 04 52 3f 78 7d 1a 3f
       0.20775042 -0.8485669 0.82038176 0.603477
0002a0 47 da 58 3f d8 d6 41 be 61 73 33 bf cc 3c 1c bf
       0.84708065 -0.18929613 -0.7009793 -0.6103027
0002b0 a2 95 21 3f 36 45 9b 3f d5 22 3b 3f d3 87 96 bd
       0.63118947 1.2130497 0.73100024 -0.07350125
0002c0 f0 b9 9f bf 39 19 1f c0 9a bb 99 c0 b1 18 02 c0
       -1.2478619 -2.4859145 -4.8041506 -2.032757
0002d0 1a 7d 2e bf d7 06 87 bf ff 60 14 c0 c4 35 95 c0
       -0.6815964 -1.0548962 -2.3184202 -4.662813
0002e0 c0 5d 09 c0 15 55 0f bf ed 23 3b bf 4b 4b 0a c0
       -2.146347 -0.559892 -0.73101693 -2.1608455
0002f0 8e d5 95 c0 ec f5 03 c0 88 7f e1 be 82 53 13 3f
       -4.6823187 -2.0618849 -0.4404261 0.575493
000300 22 7d b1 be 87 cc 8e 3e db 8b 2b 3f ee 4b cb bd
       -0.3466578 0.27890417 0.6701028 -0.09926592
000310 9b ab 30 be 8a 9c fe c0 c4 0f e5 c0 27 b5 91 c0
       -0.17252962 -7.956609 -7.1581745 -4.5533633
000320 de b7 17 3f 10 e2 13 bf a0 b7 94 be c6 c0 11 3f
       0.59264934 -0.5776682 -0.29046345 0.56934774
000330 f7 58 2a be f7 7a a4 bf d7 25 ad be b9 2d 58 bd
       -0.166355 -1.2850026 -0.33817932 -0.05277798
000340 ad 33 9b 3f d1 77 8c bf 38 06 ec 3f e7 ae 4c 3f
       1.2125145 -1.0974065 1.8439398 0.7995438
000350 cb f8 82 bf 9d 61 86 bf 5c ba a0 bf f6 f5 0c bf
       -1.0232176 -1.0498539 -1.2556872 -0.55062807
000360 56 97 6d be ae be b9 be aa 66 8e bf 2d d3 1e bf
       -0.23202261 -0.3627829 -1.112508 -0.6204098
000370 64 96 d9 be a6 7a 02 3c 00 66 e5 bd 1a 4c 94 bf
       -0.4249755 0.007963812 -0.112010956 -1.1585724
000380 d9 a7 34 bf 4b 12 0d be 1e 39 b1 bd 34 93 47 be
       -0.70568615 -0.1377651 -0.08653472 -0.19489747
000390 0b 49 99 bf 7c 96 fa be fe 67 af bd 58 0b a2 3f
       -1.1975416 -0.48942935 -0.08564757 1.2659712
0003a0 37 2c 90 3f 47 f6 b5 3e ec 24 dc be 47 03 a5 bc
       1.1263493 0.35539457 -0.4299692 -0.020143164
0003b0 d7 ba 1a be 9b 4d b1 bf ad 40 b2 bf 70 4a ca be
       -0.15110336 -1.3851808 -1.3925987 -0.39509916
0003c0 58 fd 34 3c 6c 26 d9 3f 05 d7 15 3f 9c 6d 17 bf
       0.01104673 1.696485 0.5853122 -0.59151626
0003d0 e0 64 14 3e a4 76 4d 3c 18 af 95 3e e3 2e 75 3f
       0.14491606 0.012540493 0.29235148 0.9577467
0003e0 6f d3 a9 bf 5a 5f 13 40 b6 73 65 bf a4 d5 31 bf
       -1.326765 2.3026948 -0.89629686 -0.69466615
0003f0 d0 12 b7 bf 75 70 bf be e8 2c e4 be ac 83 7f 3f
       -1.4302616 -0.37390485 -0.4456551 0.9981029

convs.1.fc_full.bias f4 [16]
000000 19 16 93 3c 3e f1 5d 3c d3 e2 69 3a b8 7d 96 bd
       0.017954873 0.013546286 0.0008922044 -0.07348198
000010 6f 97 07 3e 2b 32 88 3d 7e 3d 84 bc f6 fe 9a bd
       0.13241361 0.06650194 -0.016142603 -0.07568161
000020 d0 44 38 3e f3 be e9 bd ba b1 2b be 56 f7 cf 3d
       0.17995 -0.11413374 -0.16767016 0.101545975
000030 4b a9 27 be 18 18 ea 3d 3a 77 d1 3d c0 0e 1d 3c
       -0.16373174 0.11430377 0.10227819 0.009586036

convs.1.bn1.weight f4 [16]
000000 30 d5 6c 40 a4 01 75 40 ac 8f ad 40 08 3e 3e 40
       3.700512 3.8282251 5.423788 2.972536
000010 30 a4 71 40 b7 b6 75 40 b3 05 2e 40 f0 c1 99 40
       3.7756462 3.839277 2.7190979 4.804924
000020 48 d8 09 40 31 46 a4 3f e7 d7 d2 3f df 73 c6 3f
       2.1538258 1.2833921 1.6472138 1.5504111
000030 7d 18 3e 3f fd 03 93 3f f9 4f 1c 40 f0 de 6c 40
       0.74256116 1.1485592 2.4423811 3.701107

convs.1.bn1.bias f4 [16]
000000 d8 a0 55 c0 c1 bd d0 3f d2 88 3f bf cd dc 23 c0
       -3.3379421 1.6307908 -0.74818146 -2.5603516
000010 d8 a1 3d bf 9e c8 09 c0 eb 73 01 be 41 13 22 bf
       -0.7407508 -2.1528697 -0.12641875 -0.6331063
000020 09 6d 9b 3e 66 16 66 bf e7 00 24 c0 19 b1 64 c0
       0.30356625 -0.8987793 -2.562555 -3.5733092
000030 19 e3 67 3f 21 10 1b c0 73 d7 23 bf 0c a5 34 be
       0.905809 -2.4228594 -0.64000624 -0.17641085

convs.1.bn1.running_mean f4 [16]
000000 c6 d2 c8 41 37 cc ca c0 19 a8 27 c1 e4 0a 9a 41
       25.102917 -6.3374286 -10.478539 19.255318
000010 9a 82 db c1 06 f3 cc c0 30 a6 08 c0 35 6a 02 c1
       -27.43877 -6.404666 -2.1351433 -8.150929
000020 ca f0 ed 41 da 18 ff bf f6 54 96 3f a8 9f a2 41
       29.742573 -1.9929459 1.1744678 20.327957
000030 87 bb b7 c1 2f f2 40 c1 a9 16 99 40 de 89 53 c1
       -22.966566 -12.059127 4.784016 -13.221159

convs.1.bn1.running_var f4 [16]
000000 59 43 88 41 52 31 a1 40 30 e3 8d 40 7b dc 0c 41
       17.032885 5.0372705 4.433983 8.803828
000010 90 30 62 40 3d e4 16 41 8b e2 f5 40 5d b5 9f 40
       3.534214 9.430722 7.683904 4.990889
000020 d9 ad 76 41 9f db 01 41 ac 90 be 40 ac f2 a4 41
       15.417443 8.116118 5.95516 20.618492
000030 ac a8 a5 40 be f7 ad 40 72 ab 6b 41 60 6c 0b 41
       5.17684 5.436492 14.729357 8.713959

convs.1.bn2.weight f4 [8]
000000 92 ad 1d 40 2c dd 46 40 d8 d0 0b 40 7f 0c 9a 3f
       2.463719 3.1072493 2.1846218 1.2035064
000010 53 57 d0 3f 4d 2c 19 40 aa 60 20 40 3d 54 aa 3f
       1.6276649 2.393329 2.5059 1.3306957

convs.1.bn2.bias f4 [8]
000000 e1 ff 05 bf 33 f8 9c be 47 b5 ad bf b2 32 d8 bf
       -0.52343565 -0.3065811 -1.3570946 -1.6890471
000010 45 ec 4d be 4c ed 42 bf 7f bf 24 3e 84 27 0d bf
       -0.20109661 -0.76143336 0.16088675 -0.5513842

convs.1.bn2.running_mean f4 [8]
000000 e7 d2 33 3f ad 61 7a 40 31 2e 12 3f a1 61 a8 3d
       0.70243686 3.9122117 0.5710173 0.08221746
000010 30 b3 be 40 2f a7 c0 3e 20 32 53 40 ac 87 b5 40
       5.9593735 0.3762755 3.2999344 5.6728115

convs.1.bn2.running_var f4 [8]
000000 d1 f5 09 3f 9d 75 63 41 61 8e 88 3e 3b 0e 1f 3c
       0.5389071 14.216214 0.26671126 0.009707983
000010 08 56 05 42 da 4e 0e 3e 43 c5 74 40 fe f6 c6 42
       33.334015 0.13897267 3.82454 99.48241

conv_to_fc.weight f4 [16, 11]
000000 2a 18 f7 be 13 42 6e 3f 18 e2 0b bf 8d 81 fd 3e
       -0.48260623 0.9306957 -0.54641867 0.49512902
000010 db 4e 5f bd b3 11 d7 bd 61 8c 05 bf 57 2b a1 be
       -0.05451856 -0.10501423 -0.52167326 -0.31478378
000020 4e ca 9c bf cc 4e ac 3f 66 87 58 3e 7a a1 67 3d
       -1.2249238 1.3461547 0.211454 0.05655048
000030 32 cb 08 bf 42 d4 e8 be e3 35 07 bf 6b 83 99 3e
       -0.5343505 -0.4547444 -0.528166 0.29983076
000040 18 fc e6 be 18 09 01 bf 04 d4 59 3e 6c 51 6c 3f
       -0.45114207 -0.504045 0.21272284 0.9231174
000050 5f 2e 03 bf e4 59 e0 bc 76 05 e9 be fa e7 c3 bd
       -0.5124263 -0.027386613 -0.4551198 -0.095657304
000060 94 5f f1 be 94 1c 14 bf 1f f1 b9 3d 3d 00 2f be
       -0.47143233 -0.57856107 0.09079193 -0.17089935
000070 78 d0 a2 be fe ec 35 be 59 3a 1e be af 7f a1 be
       -0.31799674 -0.17766187 -0.15451945 -0.31542727
000080 b6 16 5a be 41 25 d1 bd 26 58 ad be d7 eb 18 3e
       -0.21297726 -0.10212184 -0.33856314 0.14933716
000090 83 d3 db bc ed 6b 28 3f 3c e4 28 3e d6 a2 01 bf
       -0.026834255 0.6578968 0.16493315 -0.5063909
0000a0 5d 6c bd 3e 56 be 17 40 8e 6f 56 bf b5 ed 47 be
       0.36996737 2.3709922 -0.8376397 -0.19524272
0000b0 a4 08 78 be ba c9 09 be 58 16 05 bf 8b bb 8c be
       -0.24222046 -0.13455859 -0.5198722 -0.27486834
0000c0 8a 02 bf 3e df 69 07 bf 2e 36 0c bf f8 a7 9b 3d
       0.37306625 -0.5289592 -0.5477017 0.07600397
0000d0 ad 8b 86 bd 77 42 d0 bd 72 83 39 bd 50 13 12 bf
       -0.0656961 -0.10168927 -0.04529137 -0.5706072
0000e0 c0 8b 46 be 06 31 51 be f6 4e c4 be 10 07 f2 be
       -0.19389248 -0.20428857 -0.38341492 -0.47271013
0000f0 e4 f0 ee be 82 ce 9c be 09 55 0b bf c2 bc cb be
       -0.4666816 -0.30626303 -0.5442663 -0.39792448
000100 28 c5 07 bf 98 76 2c bf 78 1d 34 bf cb 20 64 3d
       -0.5303521 -0.6736846 -0.70357466 0.055695336
000110 7d ff 90 bf f0 cb e9 3e bd 26 c1 be 93 65 ac bf
       -1.1327969 0.45663404 -0.37724867 -1.3468498
000120 28 c1 23 3f 28 38 bd 3d 48 6e 74 bf 42 f5 7f 3e
       0.6396661 0.092392266 -0.95480776 0.24995902
000130 56 45 87 be cd 81 0f 3e 9f 42 fb 3e 27 50 41 3e
       -0.26420087 0.14014359 0.49074265 0.18878232
000140 61 93 8d be d9 e4 07 bf ca 9b 63 be ba 2e c9 3e
       -0.27651504 -0.5308357 -0.22227398 0.39293462
000150 c2 4b f1 be c3 1d a0 be a2 96 36 3f e6 f3 ea 3b
       -0.4712811 -0.31272706 0.713236 0.0071701882
000160 91 71 82 bf 21 f0 9d 3e 45 d8 47 be 12 5e 0d bf
       -1.0190908 0.30847266 -0.19516094 -0.55221665
000170 e5 ce c7 be b1 c6 37 3f ed cf 0c 3f 00 fb 06 bf
       -0.39025036 0.71787554 0.5500477 -0.52726746
000180 79 4a f4 3e 1b 98 67 be 4e a3 14 be 14 3b 78 bf
       0.47713068 -0.22616617 -0.14515421 -0.96965146
000190 cd 71 55 3d 27 7f a2 be b2 2e 2c bf 0a f7 e6 be
       0.052110482 -0.31737635 -0.6725875 -0.4511035
0001a0 8c 31 e7 3e 02 a7 19 3d 31 23 4f be ec 21 7b 3f
       0.4515499 0.037512787 -0.20228268 0.98098636
0001b0 5a 6e 20 be b6 98 7f be ae 7a 7a be 6e d6 8a be
       -0.15667096 -0.24960598 -0.24460861 -0.27116722
0001c0 c4 2a f1 be 67 d5 fe be 72 ef 25 3e 76 e1 9d be
       -0.4710294 -0.49772188 0.16204622 -0.30836076
0001d0 36 41 e0 be 91 4f c9 bd d5 dc 51 3f 9d 15 9f be
       -0.43799752 -0.09829629 0.8197759 -0.31071177
0001e0 90 c7 9d 3e 9e bc 7b be a2 0b 94 be 04 04 41 bf
       0.30816317 -0.2458367 -0.28915125 -0.7539675
0001f0 a6 13 8f be f0 e8 b7 be 99 5e b6 3d 91 a7 11 bf
       -0.27944678 -0.35919905 0.08904762 -0.5689631
000200 c8 55 22 bf a6 4d d3 ba 45 ab 3d be 5d 3c 15 be
       -0.6341214 -0.0016121163 -0.18522365 -0.14573808
000210 b0 3c 02 bf 44 32 23 3d b3 e0 81 bf 01 38 0a be
       -0.5087385 0.03984286 -1.0146698 -0.13497926
000220 c7 0b 48 bf 0e a1 34 3f 8a 07 84 be 20 a0 50 be
       -0.7814297 0.7055825 -0.25787002 -0.20373583
000230 f0 d3 b1 3f 80 e5 bc be c3 7e cc 3e ce 7e 6b be
       1.3892803 -0.36893845 0.39940462 -0.22997591
000240 9d a6 0a bf 11 84 88 bf 0a e8 08 be f7 5e 61 bf
       -0.5416048 -1.0665303 -0.13369766 -0.8803553
000250 2d 2f c3 3e 13 5a 8d bf 8d be 9b 3c be e4 1d 40
       0.3812193 -1.1043113 0.01901176 2.4670863
000260 12 61 2f be e2 ea f5 be a9 0f 91 be 52 16 79 be
       -0.17126873 -0.48030764 -0.2833226 -0.24324921
000270 58 6d f5 be 39 2f ee be ba 19 96 bc 46 52 19 bf
       -0.47934985 -0.46520403 -0.018322814 -0.59891164
000280 e5 a5 ea be f1 73 ef be 88 09 69 be 39 40 e7 bd
       -0.45829692 -0.46768144 -0.22757542 -0.112915464
000290 df e7 95 be 01 c8 05 bf 3c 9c 3d be 39 a1 73 3d
       -0.29278466 -0.52258307 -0.1851663 0.059479926
0002a0 fe 11 58 be 7f 89 f6 3e d0 3b 18 3e 05 ab 0d bf
       -0.21100613 0.48151776 0.14866567 -0.5533908
0002b0 19 6e 5b 3e 95 c3 e5 3f 05 9c 0a bf da 3a f9 3d
       0.21428718 1.7950312 -0.54144317 0.12169428

conv_to_fc.bias f4 [16]
000000 3c 05 af 3e e9 3e 4d 3e b4 fd ac be b0 35 9b bd
       0.3418368 0.2004353 -0.3378731 -0.075785995
000010 e9 11 98 be b5 ab 0c bf 4b 6d 80 3d 90 d0 27 bd
       -0.29701164 -0.54949504 0.06270846 -0.040970385
000020 15 48 ca be 9c 73 18 3e 73 e8 0c 3e a0 0e 94 be
       -0.3950812 0.14887851 0.13760547 -0.28917408
000030 8d 6d 9f 3e c8 1f fe 3d a1 9e d4 be 9f 8c 84 be
       0.31138268 0.124084055 -0.41527274 -0.25888535

fcs.0.weight f4 [16, 16]
000000 d9 87 c7 be e0 6e 39 bd 0c 2d a7 3d 84 d8 81 be
       -0.3897083 -0.045271754 0.08162889 -0.253605
000010 0a 89 83 be a7 aa 90 be b0 8d 7f be 09 c5 76 bf
       -0.2569049 -0.28255197 -0.24956393 -0.963944
000020 e6 ea a6 be 94 67 51 be c9 4c 29 be c7 8e 80 be
       -0.32601088 -0.20449668 -0.16533197 -0.2510893
000030 55 e2 c1 be ef 23 bd be bd e3 49 be 2c 93 a1 3d
       -0.3786799 -0.36941478 -0.19715782 0.07889399
000040 9b f9 13 be bf 85 07 bf 24 58 e9 be fe 2b 0c bf
       -0.14450686 -0.52938455 -0.45575058 -0.54754627
000050 b9 17 0b bf 54 88 b6 3d 66 26 8a 3f ba fe e2 3d
       -0.5433307 0.08912721 1.0792968 0.110837415
000060 51 13 ed be f7 59 fd be 57 20 f7 be 6e 2a 16 be
       -0.463038 -0.494827 -0.4826686 -0.14664623
000070 c7 7b 1d bf c0 ae 9b be 52 97 9b be a4 9d fe be
       -0.61516994 -0.3040676 -0.30388886 -0.49729645
000080 57 1c bd bf ff a8 3d bd a8 2a 04 be f6 a3 1c 3f
       -1.4774274 -0.046303745 -0.12906897 0.61187685
000090 e9 a6 55 be 91 13 51 be b3 06 84 be e7 2b 98 bf
       -0.20864452 -0.2041762 -0.2578636 -1.1888398
0000a0 3f 7b b0 bd 9e a1 8b be c6 24 96 bd 15 aa 77 be
       -0.08617257 -0.27271742 -0.07331233 -0.24185975
0000b0 f3 ef 71 be d3 f7 69 bf f1 b0 89 3e 8c 3c d1 3e
       -0.2362669 -0.91393775 0.26892808 0.40866506
0000c0 2f 0e 19 be 20 f5 40 bf 20 80 ad be 11 47 58 bf
       -0.14946817 -0.7537403 -0.33886814 -0.8448344
0000d0 91 13 8b be f7 aa 25 bf cd 3e a1 bd b1 45 16 bd
       -0.27163365 -0.64713997 -0.078733064 -0.036687557
0000e0 86 46 29 bf ff ee ab be be a5 dc be 8a 08 5d be
       -0.66123235 -0.33580777 -0.430952 -0.21585289
0000f0 29 8b 34 bf 6b df 48 3e f2 35 17 bf 66 36 eb be
       -0.7052484 0.19616477 -0.5906669 -0.4593994
000100 65 8d bf be 45 54 22 bf 00 d5 d5 be 70 33 94 be
       -0.37412563 -0.63409835 -0.4176407 -0.28945494
000110 bb 29 2d be d7 f9 b5 be 9e 22 e0 be 39 f4 d8 be
       -0.1691045 -0.35542175 -0.4377641 -0.42373827
000120 2f d5 01 bf e0 6a f9 be 2a aa a1 be dd e5 ff be
       -0.5071592 -0.48714352 -0.31575137 -0.4998006
000130 4c 2d 8f be de 96 c5 be d9 7f 04 bf 29 36 0d be
       -0.27964246 -0.38591665 -0.5175758 -0.13790192
000140 11 bd 76 be d3 1b 15 bf 9a 8b ad 3d 3f 8e 41 bf
       -0.2409556 -0.5824558 0.084738925 -0.75607675
000150 8f 07 9f be 99 54 e7 be 02 9e 0f 3e 5c b2 45 3d
       -0.31060454 -0.4518173 0.14025119 0.0482658
000160 11 48 2b bf 60 1b ed be 5e cc 25 bf 89 59 bb be
       -0.6690684 -0.46309948 -0.64764965 -0.36591747
000170 95 a9 dc be 04 3d 6f 3e 36 7f 08 bf 50 aa d1 be
       -0.4309813 0.2336312 -0.5331911 -0.4095025
000180 02 0a 40 3e 80 f0 03 bf a9 f8 96 bd a9 0b ef be
       0.18753818 -0.5153885 -0.07371647 -0.46688583
000190 fe 89 3b bd 70 e8 0f 3f c5 09 10 3f 8e 76 95 be
       -0.045785896 0.56214046 0.5626491 -0.29192013
0001a0 9f cc 77 be 8b b3 30 3e fa a9 0b bf ba 9f 81 be
       -0.2419915 0.1725599 -0.5455624 -0.25317174
0001b0 b5 29 9b be d3 d8 22 bf 4c 05 8f bd ec 03 c3 be
       -0.30305257 -0.636121 -0.06983432 -0.3808893
0001c0 93 15 2b 3e 58 21 25 bf 94 71 15 bf 8f e1 7c bf
       0.16707449 -0.64504004 -0.5837643 -0.98781675
0001d0 4c aa 21 bf 7f fd ac 3d b4 8e 8a 3e d5 7e 7a be
       -0.6315048 0.08446788 0.27062 -0.24462445
0001e0 9a 81 eb be 76 68 ec be 5f 64 19 bf 4c e4 01 bf
       -0.45997316 -0.46173447 -0.5991878 -0.5073898
0001f0 b8 a5 00 bf f2 e4 a3 bd bd 98 ae bd 57 8d 22 bf
       -0.50252867 -0.08002652 -0.08525226 -0.6349692
000200 87 bf 77 3e f3 8e 22 bf f1 4c a5 be 0b a7 89 be
       0.24194156 -0.63499373 -0.32285264 -0.26885256
000210 27 a1 97 be bd c6 82 be 2d 04 ad 3d 5e 63 9e be
       -0.29615137 -0.2554225 0.08448062 -0.30935186
000220 ea df fe be a7 60 69 be bf 57 cf be 91 21 e5 be
       -0.49780208 -0.22790776 -0.40496632 -0.44752172
000230 ff 28 2e bf 30 90 0c bd 05 8d 15 bf a2 8a 0d bf
       -0.68031305 -0.034317195 -0.58418304 -0.5528966
000240 6f 5c 3b 3e 06 33 c0 be c5 a0 40 be 35 c1 19 bf
       0.1829698 -0.37538928 -0.18811329 -0.60060436
000250 a1 2c 08 bf 38 60 c1 3e 81 c2 94 3e ed 5f 96 be
       -0.531931 0.37768722 0.29054645 -0.2937006
000260 57 72 c1 be 4e 90 7f be 20 e9 92 be 5a ef 6b be
       -0.37782547 -0.24957392 -0.28693485 -0.23040524
000270 8d 3a 0d bf 1f b6 7c be 7c 3e a4 be 47 d2 50 be
       -0.55167466 -0.24678849 -0.32078922 -0.20392714
000280 5f d7 83 3d e0 7a 40 bf be 88 0f 3d 35 06 18 bf
       0.06437563 -0.7518749 0.035042517 -0.5938447
000290 39 2c 03 bf 3b 49 ca be 61 8a 62 3e 3e 15 2f be
       -0.51239353 -0.39508995 0.221231 -0.17097947
0002a0 da ad 1c bf 04 37 3f bf 40 6e 92 bf 22 73 09 be
       -0.61202776 -0.7469332 -1.1439896 -0.13422826
0002b0 f5 c6 e7 be 53 88 7c 3e 8c 01 62 bf ae 82 42 bf
       -0.4526898 0.24661379 -0.8828361 -0.7598065
0002c0 46 da 84 3e 5c a6 b4 be 5d 7c 81 bd bb 28 af be
       0.2594778 -0.35283172 -0.063225485 -0.34210762
0002d0 10 43 ab be e3 fd 38 3e fd d9 26 3f eb 9d b5 be
       -0.33449602 0.180656 0.65176374 -0.35472044
0002e0 44 49 09 bd a5 ec 06 3c 05 88 b0 be 93 5c c3 be
       -0.033517137 0.008235131 -0.34478775 -0.38156566
0002f0 9d 71 92 bd d0 24 93 bf f7 83 c5 be 01 22 dd be
       -0.07150576 -1.1495609 -0.38577244 -0.43190005
000300 09 65 d9 3d 30 90 f8 be 54 23 1d be ad 2e 2f bf
       0.10614974 -0.48547506 -0.15345508 -0.68430597
000310 ca e7 0b bf 1d 36 17 3e 76 77 36 3f 6c 4c 5a be
       -0.5465056 0.14766736 0.7127603 -0.21318215
000320 d8 04 dc be a1 3b fd be a6 0f 19 bf 24 5c 5d bd
       -0.42972445 -0.49459556 -0.597895 -0.05404295
000330 b9 d2 68 be 6f 77 dd be 43 51 7b 3c ab 83 f1 be
       -0.22736634 -0.43255183 0.0153391985 -0.47170767
000340 84 15 89 be 3e 50 f6 be a1 8a 97 be b9 72 cd be
       -0.26774228 -0.48108095 -0.29597953 -0.4012659
000350 3f 22 84 be 3e 6d 1b be f0 d3 ca 3d ff 0f ab bb
       -0.25807378 -0.15178391 0.09903705 -0.0052204127
000360 c6 84 11 bf 5a 4d f4 be a8 22 16 bf 2c 28 8f bd
       -0.5684322 -0.47715265 -0.5864663 -0.06990084
000370 38 78 f4 be 42 69 33 be 9c a8 00 bf bc e2 5f be
       -0.4774797 -0.17520621 -0.5025728 -0.21863836
000380 47 9a 81 be 98 d2 28 bd 3b fa 55 be 5b de 13 be
       -0.25313017 -0.041216463 -0.20896237 -0.1444029
000390 5d 43 90 be 47 77 4d be 81 f8 e7 be 4f 56 5f bf
       -0.28176394 -0.20065032 -0.4530678 -0.8724107
0003a0 ae 3e 04 3d f5 03 60 bb a2 92 9f bd 21 53 ea bd
       0.03228634 -0.0034182046 -0.0779164 -0.11441637
0003b0 38 6b 50 3e d6 1e d0 3e ee 65 71 3e 51 7c 62 bc
       0.203534 0.40648526 0.2357404 -0.013823585
0003c0 6c 31 fe be 0a c2 4c bf bb 25 ce be 08 c8 27 bf
       -0.4964708 -0.7998358 -0.4026316 -0.655396
0003d0 b8 55 3f bf 81 92 f6 3c 20 f5 ba bd e1 f0 c9 3d
       -0.7474017 0.030099155 -0.09128785 0.09860397
0003e0 45 f2 2e bf 7c 55 2e bf 48 10 63 bf 8e f9 be be
       -0.68338424 -0.6809919 -0.8869672 -0.3729977
0003f0 1d a8 04 bf 7f 69 11 3e 94 5b df be 7b 93 54 bf
       -0.5181902 0.142004 -0.43624556 -0.8303754

fcs.0.bias f4 [16]
000000 be a1 07 be 0f 92 a6 be 1e 0e af be f4 67 b0 be
       -0.13245293 -0.3253331 -0.34190458 -0.3445431
000010 4d d1 08 be 26 b3 d7 be 7f 50 fd bd e0 91 5c be
       -0.13361092 -0.42128867 -0.12368869 -0.21540022
000020 16 d0 2e be a6 9b 73 be 6a 60 88 3c dc 93 43 3d
       -0.17071566 -0.23789844 0.016647536 0.04774843
000030 3d ac 2a 3d bd 3a 77 3b 82 8f b6 be a3 77 9b bd
       0.041668165 0.003772422 -0.35656363 -0.07591178

fc_out.weight f4 [1, 16]
000000 5f fd 84 bc 90 54 87 be 6a 83 d9 3e 90 d4 bc be
       -0.016234098 -0.26431704 0.42483073 -0.36880922
000010 28 2f 2b be 0f 24 ad be 49 1c d5 be c1 12 ae be
       -0.16717207 -0.33816573 -0.41623142 -0.33998683
000020 c3 78 6d be fb 34 60 be 1d 17 b9 be a1 03 7f be
       -0.23190598 -0.2189521 -0.36150447 -0.24903728
000030 6a 44 a4 be 66 30 6c be c9 18 53 3d 12 f3 ba be
       -0.32083446 -0.23065338 0.05153731 -0.36513573

exp_avg f4 [8, 102]
000000 f5 3a 9e 38 00 00 00 00 bf 13 63 37 8b fc 0d 37
       7.545009e-05 0.0 1.3534852e-05 8.463055e-06
000010 84 a4 18 b8 be d3 ca 37 00 00 00 00 d0 63 89 b9
       -3.639284e-05 2.4178877e-05 0.0 -0.00026205042
000020 87 6c 2c b8 76 27 15 b9 79 7b 2a 38 00 00 00 00
       -4.110907e-05 -0.00014224448 4.064615e-05 0.0
000030 00 00 00 00 cc 8f 33 b7 00 00 00 00 00 00 00 00
       0.0 -1.0702712e-05 0.0 0.0
000040 81 ef 1a 3a 00 00 00 00 00 00 00 00 00 00 00 00
       0.00059103227 0.0 0.0 0.0
000050 81 ef 1a 3a a9 31 84 38 cd 3b f1 b9 59 e0 fd b8
       0.00059103227 6.3035004e-05 -0.00046011657 -0.00012105768
000060 86 0a 45 39 00 00 00 00 00 00 00 00 6a ab 8a 38
       0.00018791304 0.0 0.0 6.612281e-05
000070 09 0a aa b6 4d 74 e2 b9 79 7b 2a 38 00 00 00 00
       -5.067563e-06 -0.0004319273 4.064615e-05 0.0
000080 00 00 00 00 00 00 00 00 81 ef 1a 3a 00 00 00 00
       0.0 0.0 0.00059103227 0.0
000090 00 00 00 00 81 ef 1a 3a 00 00 00 00 33 11 d5 b8
       0.0 0.00059103227 0.0 -0.00010159835
0000a0 fd f5 9c b9 2c a9 80 b6 21 34 88 38 34 b6 21 37
       -0.00029937914 -3.8343915e-06 6.494695e-05 9.63877e-06
0000b0 00 00 00 00 00 00 00 00 00 00 00 00 77 9d ba 38
       0.0 0.0 0.0 8.898501e-05
0000c0 99 4c 16 b6 84 a4 18 b8 be d3 ca 37 81 ef 1a 3a
       -2.2396327e-06 -3.639284e-05 2.4178877e-05 0.00059103227
0000d0 d0 63 89 b9 87 6c 2c b8 76 27 15 b9 79 7b 2a 38
       -0.00026205042 -4.110907e-05 -0.00014224448 4.064615e-05
0000e0 00 00 00 00 00 00 00 00 00 00 00 00 11 da eb 38
       0.0 0.0 0.0 0.00011246291
0000f0 2d c2 4b b8 6e a0 ce b9 00 00 00 00 00 00 00 00
       -4.8579812e-05 -0.0003941091 0.0 0.0
000100 81 ef 1a 3a 00 00 00 00 00 00 00 00 00 00 00 00
       0.00059103227 0.0 0.0 0.0
000110 00 00 00 00 00 00 00 00 00 00 00 00 00 00 00 00
       0.0 0.0 0.0 0.0
000120 08 85 07 b9 97 ec 23 b6 38 97 25 3a 00 00 00 00
       -0.00012924161 -2.4426606e-06 0.0006316784 0.0
000130 00 00 00 00 00 00 00 00 bf 13 63 37 47 21 18 3a
       0.0 0.0 1.3534852e-05 0.00058032986
000140 13 2d d6 b9 f5 3a 9e 38 00 00 00 00 a2 35 d4 b9
       -0.00040850844 7.545009e-05 0.0 -0.0004047575
000150 35 7f 28 38 ab ea 4c b7 8f 97 13 3a 93 fa af 38
       4.0172792e-05 -1.2213985e-05 0.0005630189 8.391323e-05
000160 b1 19 9f b7 34 b6 21 37 00 00 00 00 00 00 00 00
       -1.896624e-05 9.63877e-06 0.0 0.0
000170 19 9b 12 3a 00 00 00 00 00 00 00 00 00 00 00 00
       0.00055925694 0.0 0.0 0.0
000180 b8 1d e4 b7 7c 8e 2b b9 db 44 14 b9 30 25 0d 38
       -2.7193557e-05 -0.0001636091 -0.0001414003 3.3651653e-05
000190 f6 56 4f b6 fe 11 56 36 57 23 05 b9 00 00 00 00
       -3.0896022e-06 3.1898958e-06 -0.00012697034 0.0
0001a0 9a 95 d1 38 8b f3 32 b8 be 15 a3 b8 ca 78 ed b6
       9.993762e-05 -4.2665324e-05 -7.7764955e-05 -7.077212e-06
0001b0 00 00 00 00 07 46 11 b8 36 15 88 38 93 a5 86 b8
       0.0 -3.4635912e-05 6.488936e-05 -6.4204585e-05
0001c0 05 e9 1d 35 00 00 00 00 00 00 00 00 f2 34 82 37
       5.8826146e-07 0.0 0.0 1.5521862e-05
0001d0 00 00 00 00 00 00 00 00 c7 a6 08 39 00 00 00 00
       0.0 0.0 0.000130321 0.0
0001e0 00 00 00 00 00 00 00 00 c7 a6 08 39 49 ef 14 39
       0.0 0.0 0.000130321 0.0001420352
0001f0 83 78 83 b8 3d 92 c8 b8 29 ab 23 b9 00 00 00 00
       -6.269014e-05 -9.563982e-05 -0.00015608653 0.0
000200 00 00 00 00 53 c2 eb b8 b8 fc 12 b8 d5 f6 d5 b7
       0.0 -0.00011241869 -3.5044475e-05 -2.5506519e-05
000210 05 e9 1d 35 00 00 00 00 00 00 00 00 00 00 00 00
       5.8826146e-07 0.0 0.0 0.0
000220 c7 a6 08 39 00 00 00 00 00 00 00 00 c7 a6 08 39
       0.000130321 0.0 0.0 0.000130321
000230 00 00 00 00 bf 69 85 b8 4d 4f 19 37 bf f2 1b 38
       0.0 -6.361631e-05 9.137974e-06 3.7180955e-05
000240 ab 2b fe b8 bb 20 0e b8 00 00 00 00 00 00 00 00
       -0.000121197976 -3.388592e-05 0.0 0.0
000250 00 00 00 00 9f c4 e2 b7 26 b2 e3 b7 be 15 a3 b8
       0.0 -2.7032858e-05 -2.7143466e-05 -7.7764955e-05
000260 ca 78 ed b6 c7 a6 08 39 07 46 11 b8 36 15 88 38
       -7.077212e-06 0.000130321 -3.4635912e-05 6.488936e-05
000270 93 a5 86 b8 05 e9 1d 35 00 00 00 00 00 00 00 00
       -6.4204585e-05 5.8826146e-07 0.0 0.0
000280 00 00 00 00 69 3e f4 b7 29 9f e7 b8 70 a7 09 b8
       0.0 -2.9116129e-05 -0.00011044584 -3.2819284e-05
000290 00 00 00 00 00 00 00 00 c7 a6 08 39 00 00 00 00
       0.0 0.0 0.000130321 0.0
0002a0 00 00 00 00 00 00 00 00 00 00 00 00 00 00 00 00
       0.0 0.0 0.0 0.0
0002b0 00 00 00 00 00 00 00 00 fe 35 ac b8 35 7b 14 b9
       0.0 0.0 -8.211656e-05 -0.00014160278
0002c0 ab 44 09 39 00 00 00 00 00 00 00 00 00 00 00 00
       0.00013090919 0.0 0.0 0.0
0002d0 9a 95 d1 38 5d ed 18 39 4d af 28 b9 57 23 05 b9
       9.993762e-05 0.00014584274 -0.00016087033 -0.00012697034
0002e0 00 00 00 00 27 ef 0b b8 e4 9a 6d 38 49 ed b1 b8
       0.0 -3.336291e-05 5.6649456e-05 -8.4842155e-05
0002f0 3c 0f 37 39 35 e0 31 b9 a0 29 4b 38 bb 20 0e b8
       0.00017457915 -0.00016963559 4.8437738e-05 -3.388592e-05
000300 00 00 00 00 00 00 00 00 d0 3d f9 38 00 00 00 00
       0.0 0.0 0.00011884759 0.0
000310 00 00 00 00 00 00 00 00 33 4c 23 39 c7 00 ab b9
       0.0 0.0 0.00015573278 -0.0003261624
000320 60 32 94 37 5d 8e 26 b7 82 57 95 b6 fb 29 d1 36
       1.7666433e-05 -9.927518e-06 -4.4507333e-06 6.2335725e-06
000330 ce f8 a6 b9 00 00 00 00 b0 01 32 39 c9 59 c5 38
       -0.0003184736 0.0 0.00016976031 9.410416e-05
000340 e7 8a 3d 38 a5 2c 42 38 00 00 00 00 5a 1a 98 b8
       4.5190474e-05 4.6294783e-05 0.0 -7.252833e-05
000350 e1 80 9a b8 aa 87 83 38 6e a8 ed 37 00 00 00 00
       -7.367298e-05 6.271836e-05 2.8331033e-05 0.0
000360 00 00 00 00 9a f2 04 37 00 00 00 00 00 00 00 00
       0.0 7.924298e-06 0.0 0.0
000370 a2 bb c9 38 00 00 00 00 00 00 00 00 00 00 00 00
       9.619376e-05 0.0 0.0 0.0
000380 a2 bb c9 38 19 05 97 b5 3c 54 60 b6 42 9f 4e 39
       9.619376e-05 -1.125186e-06 -3.3427632e-06 0.00019705019
000390 99 ca 54 b9 00 00 00 00 00 00 00 00 80 48 34 b8
       -0.00020293369 0.0 0.0 -4.2982865e-05
0003a0 2b c7 0c 38 ea 7b f5 b7 6e a8 ed 37 00 00 00 00
       3.356409e-05 -2.9263978e-05 2.8331033e-05 0.0
0003b0 00 00 00 00 00 00 00 00 a2 bb c9 38 00 00 00 00
       0.0 0.0 9.619376e-05 0.0
0003c0 00 00 00 00 a2 bb c9 38 00 00 00 00 c7 f1 be 38
       0.0 9.619376e-05 0.0 9.1049405e-05
0003d0 07 3a 71 36 4f b3 23 b9 09 54 64 b9 69 f7 8c 39
       3.5945575e-06 -0.00015611689 -0.0002177508 0.00026887216
0003e0 00 00 00 00 00 00 00 00 00 00 00 00 f0 ef 1b b9
       0.0 0.0 0.0 -0.00014871336
0003f0 1f f8 d5 38 e7 8a 3d 38 a5 2c 42 38 a2 bb c9 38
       0.000102028476 4.5190474e-05 4.6294783e-05 9.619376e-05
