cgcnndefect/examples/OxideMLpaper1/cgcnn/model-1.00k0_struct_ve_vg_vs/model_best.pth.tar (torch, 55486 bytes, 65 tensors)

embedding.weight f4 [8, 102]
0.4238438 0.022488445 -0.44797665 -0.21627182 -0.46000195 -0.6590713 -0.011683792 0.4981323
0.30905 1.1946623 0.33063713 -0.003824927 -0.015512884 -0.14948447 0.035998486 -0.08769896
0.1684544 -0.08965134 -0.0028466582 -0.09385995 0.036019832 -1.0998628 0.23875554 -0.39742607
0.36174962 -0.011283159 0.031223483 -0.14587884 -0.6043178 0.32238927 0.42090756 -0.053738922
0.02897685 0.094883956 0.20709464 0.097572856 -0.025205098 0.15228134 -0.029640175 1.0415606
-0.23074895 -0.2614867 -0.20450735 -0.088266164 0.08856816 0.024173655 0.08157266 -0.36485413
-0.09477678 -0.4397121 -0.5875851 0.18838517 0.6030155 0.38549468 1.1272824 0.29109284
-0.09607479 0.031145595 0.06858439 0.33301786 -0.36576265 -0.107272804 -0.0050319284 -0.09448826
0.16570458 0.010952473 -0.08188048 -0.014686711 0.024768807 0.0033300295 -0.074059576 -0.01108475
0.17438112 -0.79084826 0.22629426 0.06159585 -0.08331475 0.023994371 -0.4685428 0.16379237
0.0896595 0.39044303 0.028647073 0.8518286 -1.0042386 -0.7993993 0.27089897 0.31206155
-0.65642095 -0.18882659 -0.06291716 -0.09695238 0.27774888 -0.02438832 0.043363176 -0.09690199
1.8936479 -0.7374062 -1.2252238 -1.415133 -1.1282005 4.0839615 -0.19326761 0.047264062
-0.15749021 0.015071542 0.31032038 0.33971334 -0.09531165 -0.726587 -0.4642616 -0.71888757
1.048777 0.059782855 -0.056562103 0.25751272 0.03308215 0.049712963 -0.33365798 -0.017387353
0.001575537 -0.029436305 -0.18872063 0.9185454 -0.45484224 -0.6322861 0.32003772 -0.030232511
-0.062245924 -0.26686975 0.46868378 -0.52617556 0.9159374 -0.011549056 0.005637385 -0.01890111
-0.18291552 -0.03983712 0.020039484 -0.19811644 0.09461608 -0.28836754 0.09355432 0.17456989
0.2173957 -0.30683452 0.05390998 -0.027911685 -0.05412644 -0.21149664 0.22117867 0.3649103
0.35707045 -0.29938483 -0.6479822 -0.4908608 -0.74807966 1.0582248 0.06897939 -0.08958423
-0.078941956 0.25471255 -0.3313815 -0.114828385 0.093194865 0.042796604 -0.34424353 0.015250824
0.081092335 0.009039655 0.04652459 0.08030837 -0.08028618 0.009756781 -0.40850255 0.43315747
-0.17172213 -0.062051546 0.04792162 -0.028004803 -0.2117966 -0.15817235 0.028106915 -0.23542333
-0.07757686 -0.63748014 0.8186715 0.38957867 -0.3180363 -0.16475417 1.3844658 -0.29464665
-0.033734486 -0.03247568 -0.4284769 0.07914432 0.07387339 0.06942127 0.89497817 -1.2516918
-0.07753655 0.5254331 0.041517988 -1.7175621 -0.3877604 -0.044773377 -0.16982558 -0.83553445
-0.22738715 -0.49862093 -0.0373285 -0.9631137 1.6810815 0.18565148 0.83510196 0.05552987
-0.055748962 0.479424 0.04024086 -0.0024339631 0.22802319 -0.065059096 0.008244082 0.009761952
0.30125687 -0.5384306 -0.029461956 -0.43280628 -0.116186485 -0.04617018 -0.0526793 -0.33579555
-0.42762884 -0.16235888 0.9476553 -0.038072154 -0.04391478 0.0083349645 0.11156398 -0.07079654
-0.024436079 0.18986242 0.03864523 0.35339096 -0.48320523 -0.10363416 -0.4768424 -0.24600075
0.025156118 -0.070447974 -0.091098666 -0.37811083 -0.44368637 -0.23135923 -0.50894755 0.30529216
00000000: 0e02 d93e b039 b83c 325d e5be 5c76 5dbe
00000010: 6085 ebbe e6b8 28bf 606d 3fbc 320b ff3e
00000020: cd3b 9e3e b2ea 983f 4549 a93e a0ab 7abb
00000030: c029 7ebc 7512 19be 2673 133d 839b b3bd
00000040: 4f7f 2c3e 1f9b b7bd 008f 3abb a539 c0bd
00000050: 8889 133d 4ec8 8cbf 557c 743e 6e7b cbbe
00000060: 3f37 b93e 00dd 38bc 64c8 ff3c 4361 15be
00000070: 92b4 1abf 3510 a53e 3281 d73e 581d 5cbd
00000080: dc60 ed3c 8552 c23d 9e10 543e 47d4 c73d
00000090: ec7a cebc a4ef 1b3e f4cf f2bc dc51 853f
000000a0: 7449 6cbe 96e1 85be 606a 51be e4c4 b4bd
000000b0: 3963 b53d d407 c63c 910f a73d 29ce babe
000000c0: 541a c2bd f221 e1be fa6b 16bf 0be8 403e
000000d0: 395f 1a3f 8f5f c53e ca4a 903f 1f0a 953e
000000e0: dcc2 c4bd 0c25 ff3c f975 8c3d 5181 aa3e
000000f0: 3e45 bbbe d8b1 dbbd e0e2 a4bb 1083 c1bd
00000100: 76ae 293e 0072 333c f4b0 a7bd 88a0 70bc
00000110: f4e7 ca3c a03c 5a3b 8cac 97bd d09c 35bc
00000120: f790 323e 0875 4abf afb9 673e ee4b 7c3d
00000130: eca0 aabd d88f c43c d8e4 efbe 30b9 273e
00000140: 669f b73d 26e8 c73e 44ad ea3c 7011 5a3f
00000150: e48a 80bf 6fa5 4cbf 45b3 8a3e 88c6 9f3e
00000160: 340b 28bf c25b 41be b6da 80bd f88e c6bd
00000170: 1a35 8e3e 04ca c7bc 969d 313d 8d74 c6bd
00000180: 0e63 f23f a7c6 3cbf 22d4 9cbf 1423 b5bf
00000190: e068 90bf d0af 8240 f2e7 45be f697 413d
000001a0: 1d45 21be a1ee 763c 50e2 9e3e e8ee ad3e
000001b0: c132 c3bd 9b01 3abf b2b3 edbe 0409 38bf
000001c0: 533e 863f dede 743d aaad 67bd b5d8 833e
000001d0: 2681 073d d29f 4b3d 38d5 aabe ec6f 8ebc
000001e0: 4082 ce3a 6824 f1bc fb3f 41be cb25 6b3f
000001f0: 15e1 e8be 80dd 21bf fcdb a33e 2caa f7bc
00000200: 95f5 7ebd 27a3 88be 52f7 ef3e 71b3 06bf
00000210: e07a 6a3f 4038 3dbc d0b9 b83b 80d6 9abc
00000220: 354e 3bbe 3f2c 23bd d829 a43c 09df 4abe
00000230: 13c6 c13d e9a4 93be 6899 bf3d 73c2 323e
00000240: fa9c 5e3e 6a19 9dbe b6d0 5c3d 0ca7 e4bc
00000250: b0b3 5dbd 9392 58be a97c 623e 86d5 ba3e
00000260: f0d1 b63e f848 99be 29e2 25bf 1b52 fbbe
00000270: 2682 3fbf e973 873f 1145 8d3d f077 b7bd
00000280: 52ac a1bd af69 823e d6aa a9be 252b ebbd
00000290: f3dc be3d 7e4b 2f3d b040 b0be 98de 793c
000002a0: bd13 a63d 101b 143c 9290 3e3d b778 a43d
000002b0: 156d a4bd e8da 1f3c 3f27 d1be d1c6 dd3e
000002c0: edd7 2fbe c329 7ebd 7649 443d 546a e5bc
000002d0: 35e1 58be eff7 21be 7940 e63c d012 71be
000002e0: 9ee0 9ebd e631 23bf 7594 513f db76 c73e
000002f0: a7d5 a2be 51b5 28be 2d36 b13f eddb 96be
00000300: 2c2d 0abd 3805 05bd 5361 dbbe 6b16 a23d
00000310: ef4a 973d bd2c 8e3d 4a1d 653f 7037 a0bf
00000320: 7ccb 9ebd c982 063f c40e 2a3d 13d9 dbbf
00000330: 8888 c6be 4a64 37bd c2e6 2dbe 96e5 55bf
00000340: 2dd8 68be 3e4b ffbe c5e5 18bd 9f8e 76bf
00000350: ae2d d73f 6c1b 3e3e 3ec9 553f 4a73 633d
00000360: 0659 64bd 1077 f53e 9ad3 243d 2083 1fbb
00000370: e97e 693e b43d 85bd 3012 073c 98f0 1f3c
00000380: 573e 9a3e 96d6 09bf 335a f1bc c998 ddbe
00000390: 2ef3 edbd f11c 3dbd 40c6 57bd 65ed abbe
000003a0: 2bf2 dabe 6841 26be 8a99 723f 8cf1 1bbd
000003b0: fcdf 33bd 608f 083c a87b e43d c7fd 90bd
000003c0: 2c2e c8bc 4b6b 423e 764a 1e3d a9ef b43e
000003d0: ad66 f7be 253e d4bd b024 f4be 9fe7 7bbe
000003e0: 3414 ce3c 0747 90bd f091 babd be97 c1be
000003f0: dc2a e3be 6fe9 6cbe 634a 02bf 414f 9c3e

embedding.bias f4 [8]
-0.39993173 -0.49339107 -0.963745 -0.92054015 0.28751904 -0.4049883 0.05596773 -0.09628849
00000000: dac3 ccbe c19d fcbe feb7 76bf 85a8 6bbf
00000010: b235 933e a05a cfbe 6b3e 653d e632 c5bd

convs.0.fc_full.weight f4 [16, 40]
-0.5248917 0.6926978 -0.8127108 0.213034 0.4562096 0.1538232 -0.16200566 0.13458599
1.0657811 -0.31971952 0.8008754 -1.1131481 -0.96200687 -0.82116896 0.2919683 0.35517472
-0.7251942 -0.66392326 0.43703318 0.7280224 0.54446936 -0.6184335 -0.6890647 0.54923487
0.5565949 0.49634328 -0.7068666 -0.55285877 0.72902477 0.5383479 0.7215652 -0.15761727
-0.46560708 -0.65900564 -0.6653342 0.09321058 0.029639222 -2.841237 -4.0778837 -7.5016913
1.1019906 1.3390789 -0.4571683 -0.28539577 0.2595449 -0.5762492 -0.12155083 1.0249162
0.5350576 -0.119326934 -0.34670112 0.04858623 0.26242566 -0.95058984 -0.5625403 0.9660457
0.08390238 0.19223101 1.363132 0.37579697 0.14640391 0.23656793 0.42635772 1.3580846
0.20023762 -0.049619768 0.058485556 0.2482089 1.3849915 0.09092114 0.08039586 -0.87354934
-0.47471565 0.046860505 0.3117116 -5.0395563e-05 0.02326401 1.2998528 0.99275863 0.5438217
0.43449357 0.37022448 -0.6640531 -0.35981435 0.2914788 0.67529637 -0.3881572 -0.11908491
0.1385163 0.79405004 0.18974008 0.0025775982 -0.40505752 -0.5065397 0.42269972 0.29780743
-1.6160979 -1.5923332 -1.5984831 1.3170496 1.5539752 -1.6380758 -1.5908043 -1.4788666
1.4253852 1.6356895 -1.6707156 -1.6546856 -1.7411803 1.2987072 1.6952765 -0.18758592
-0.5909205 -0.86579657 -0.792077 -0.13334222 -0.003004848 -0.46153167 0.21255542 0.430729
-0.31012982 -0.26939934 -0.13122596 0.25020492 0.20316628 0.19852509 -0.19731383 -0.32997397
0.06255837 0.5201533 -1.6980524 0.10926647 -0.3660725 0.10665916 0.47568664 0.27630794
0.1398916 0.28637204 0.06661511 -0.31263345 -0.15605992 0.035404045 0.04269643 0.07914073
-0.07701346 -0.13639371 0.16984442 0.20348555 0.05617001 -0.1922823 -0.30817252 -1.2529196
-0.5989764 0.15365605 0.33615085 -0.13118021 0.08448808 1.6046468 1.0246639 0.5943484
-1.1776251 0.4691139 -0.39626765 -0.32848632 -0.48756257 0.8508954 0.9113806 -0.24759221
0.28873694 0.062364157 -0.004879117 -1.3390613 -0.38470864 -0.20500042 1.0450225 0.37046757
-0.02968745 -0.37384745 -2.2211413 -0.81341743 -0.6061863 0.21042667 -0.20847721 -2.3164747
-0.7588351 -0.5125012 0.29884294 -0.2924953 -2.3567748 -0.8578538 -0.5769462 0.7469564
0.38052025 0.09579494 -0.34357813 0.12006628 -0.004385026 -1.7961006 -0.57235694 1.4268157
-0.28066942 -0.5058653 0.32752153 0.27743623 -0.33339864 0.20914376 -0.07111053 -0.013581002
-0.41869158 0.6631901 0.34501415 2.9027436 -0.5116015 -0.13941479 0.4429272 1.8178104
0.07257971 0.19095585 0.7877144 0.22731584 0.12601498 -0.06906015 0.20753698 0.91718876
0.21153735 -0.12837082 0.007854913 0.21403535 0.74365133 0.08645871 0.0060416902 -0.12950487
0.8641763 1.0769762 0.21039449 -0.08609301 0.030827865 1.5353822 2.285508 2.191533
0.5512794 0.2156618 0.63324493 -0.010384431 0.045314465 -0.17812298 -0.17753406 0.35944134
0.7858316 0.23126839 -0.67836213 -1.2071992 0.3713018 -0.36743793 -0.5058267 0.7206379
00000000: 4d5f 06bf a554 313f d10d 50bf 9625 5a3e
00000010: 4e94 e93e d483 1d3e d0e4 25be e9d0 093e
00000020: 846b 883f 47b2 a3be 2c06 4d3f a37b 8ebf
00000030: 1546 76bf 2138 52bf de7c 953e 76d9 b53e
00000040: 54a6 39bf e0f6 29bf d0c2 df3e ad5f 3a3f
00000050: 5862 0b3f a851 1ebf 8b66 30bf a89a 0c3f
00000060: 017d 0e3f b520 fe3e 36f5 34bf 2788 0dbf
00000070: 5ea1 3a3f 2bd1 093f 7fb8 383f 6c66 21be
00000080: 0d64 eebe 98b4 28bf 5853 2abf 30e5 be3d
00000090: f4cd f23c d4d6 35c0 067e 82c0 db0d f0c0
000000a0: 070e 8d3f f066 ab3f f711 eabe 651f 92be
000000b0: 12e3 843e 1185 13bf a4ef f8bd 7430 833f
000000c0: 89f9 083f ae61 f4bd cf82 b1be 5b02 473d
000000d0: a85c 863e db59 73bf a402 10bf c54e 773f
000000e0: 03d5 ab3d 35d8 443e 1c7b ae3f 7668 c03e
000000f0: e8ea 153e dd3e 723e 8f4b da3e b7d5 ad3f
00000100: 170b 4d3e 193e 4bbd 8d8e 6f3d 792a 7e3e
00000110: 6747 b13f dd34 ba3d 96a6 a43d eea0 5fbf
00000120: ee0d f3be cdf0 3f3d aa98 9f3e d35f 53b8
00000130: 2a94 be3c 9461 a63f 6e25 7e3f e637 0b3f
00000140: f175 de3e 108e bd3e 62ff 29bf 9639 b8be
00000150: b63c 953e 39e0 2c3f 8abc c6be cae2 f3bd
00000160: 38d7 0d3e dd46 4b3f 394b 423e ecec 283b
00000170: b363 cfbe 96ac 01bf 196c d83e 377a 983e
00000180: 4cdc cebf 93d1 cbbf 189b ccbf 1595 a83f
00000190: a9e8 c63f 78ac d1bf 7a9f cbbf 804b bdbf
000001a0: 0673 b63f 465e d13f 02da d5bf bdcc d3bf
000001b0: ffde debf 0a3c a63f d2fe d83f 8616 40be
000001c0: 9146 17bf d8a4 5dbf 8fc5 4abf dd8a 08be
000001d0: fcec 44bb e14d ecbe 21a8 593e 8388 dc3e
000001e0: 56c9 9ebe b6ee 89be 1960 06be dc1a 803e
000001f0: d20a 503e 294a 4b3e a30c 4abe 59f2 a8be
00000200: 9a1e 803d c428 053f c859 d9bf 19c7 df3d
00000210: db6d bbbe 1e70 da3d 338d f33e 3c78 8d3e
00000220: be3f 0f3e 5b9f 923e 816d 883d 7e11 a0be
00000230: 2cce 1fbe d503 113d 74e2 2e3d 8914 a23d
00000240: 3cb9 9dbd cbaa 0bbe b2eb 2d3e 845e 503e
00000250: 8612 663d a7e5 44be cac8 9dbe ab5f a0bf
00000260: 8456 19bf 0358 1d3e f71b ac3e 1b54 06be
00000270: 1608 ad3d 1165 cd3f 3028 833f 3727 183f
00000280: 6bbc 96bf b22f f03e 98e3 cabe 5c2f a8be
00000290: cda1 f9be 48d4 593f 3d50 693f d088 7dbe
000002a0: 54d5 933e 8f71 7f3d 00e1 9fbb 5c66 abbf
000002b0: 88f8 c4be a1eb 51be 4cc3 853f edad bd3e
000002c0: 1833 f3bc ef68 bfbe 2e27 0ec0 203c 50bf
000002d0: 062f 1bbf 177a 573e 0d7b 55be 1f41 14c0
000002e0: 0443 42bf 4733 03bf f101 993e f2c1 95be
000002f0: 66d5 16c0 4e9c 5bbf bfb2 13bf 8938 3f3f
00000300: 8dd3 c23e 2330 c43d 79e9 afbe 4fe5 f53d
00000310: 44b0 8fbb a0e6 e5bf fc85 12bf e6a1 b63f
00000320: e7b3 8fbe 6380 01bf e7b0 a73e 1f0c 8e3e
00000330: 3ab3 aabe c829 563e 66a2 91bd da82 5ebc
00000340: be5e d6be d4c6 293f b2a5 b03e 8dc6 3940
00000350: 51f8 02bf c0c2 0ebe 5bc7 e23e 03ae e83f
00000360: aca4 943d ee89 433e a7a7 493f 7cc5 683e
00000370: 120a 013e 686f 8dbd 9384 543e e2cc 6a3f
00000380: 3f9d 583e a473 03be e5b1 003c 152c 5b3e
00000390: ef5f 3e3f 4411 b13d 5ff9 c53b ed9c 04be
000003a0: a83a 5d3f 5bda 893f a771 573e 8851 b0bd
000003b0: b88a fc3c 6787 c43f c345 1240 1442 0c40
000003c0: a620 0d3f 72d6 5c3e 571c 223f 7623 2abc
000003d0: a99b 393d df65 36be 7dcb 35be b208 b83e
000003e0: 422c 493f 9fd1 6c3e 24a9 2dbf 8185 9abf
000003f0: 451b be3e d320 bcbe dc7d 01bf ba7b 383f

convs.0.fc_full.bias f4 [16]
-0.22222318 -0.27104995 -0.0022398673 0.24978307 -0.08454848 -0.0902829 0.23984765 -0.08493052
-0.121802785 -0.28129902 0.10425581 -0.07044779 0.037989065 0.15002535 0.32544023 0.0005116813
00000000: 798e 63be 0fc7 8abe bdca 12bb 22c7 7f3e
00000010: c127 adbd 3ee6 b8bd 9f9a 753e 0df0 adbd
00000020: bd73 f9bd 6d06 90be 1284 d53d ee46 90bd
00000030: 6c9a 1b3d 3fa0 193e 1aa0 a63e 5a22 063a

convs.0.bn1.weight f4 [16]
1.984351 1.995112 1.4503019 2.2715614 2.0352888 2.6467333 1.379266 1.2762134
3.8887162 2.1194704 1.4457177 0.8593219 1.6202397 1.3618689 1.0161229 1.0033847
00000000: 37ff fd3f d45f ff3f 7ea3 b93f 4361 1140
00000010: 2c42 0240 1464 2940 ca8b b03f f65a a33f
00000020: bae0 7840 67a5 0740 470d b93f 85fc 5b3f
00000030: 0464 cf3f b851 ae3f 5110 823f e96e 803f

convs.0.bn1.bias f4 [16]
-1.0026612 -0.013095802 -0.73657423 0.47338498 0.16007225 -0.01774819 0.18512326 0.1563311
-2.1646135 -0.7492314 -0.8634173 0.25524503 -0.18312532 -0.89576566 -0.0074641644 0.7254858
00000000: 3457 80bf c68f 56bc 2190 3cbf 845f f23e
00000010: fbe9 233e a764 91bc f490 3d3e 4315 203e
00000020: 0789 0ac0 a1cd 3fbf eb08 5dbf 7aaf 823e
00000030: 3485 3bbe e650 65bf f395 f4bb 70b9 393f

convs.0.bn1.running_mean f4 [16]
0.38325387 4.5619106 -10.134888 -2.3006148 -14.3930435 0.73990387 5.4895287 -12.122239
1.9195853 6.5808554 -7.518763 -4.7817464 -14.284479 2.9076371 5.6539645 -10.181251
00000000: da39 c43e 2cfb 9140 8028 22c1 463d 13c0
00000010: e849 66c1 576a 3d3f 38aa af40 b1f4 41c1
00000020: f9b4 f53f 5e96 d240 b599 f0c0 1104 99c0
00000030: 3a8d 64c1 ba16 3a40 47ed b440 67e6 22c1

convs.0.bn1.running_var f4 [16]
29.388168 22.267412 8.12493 15.436193 23.669922 27.513004 17.540789 19.51372
30.776432 24.4399 20.213041 28.365278 30.871016 29.42039 31.22827 11.796674
00000000: f81a eb41 a923 b241 b7ff 0141 a6fa 7641
00000010: 005c bd41 a21a dc41 8953 8c41 191c 9c41
00000020: 2236 f641 ea84 c341 4fb4 a141 17ec e241
00000030: d7f7 f641 f55c eb41 7fd3 f941 2dbf 3c41

convs.0.bn2.weight f4 [8]
0.8926812 1.663326 1.8399574 1.4393288 1.1743097 2.393299 1.1084688 1.2552453
00000000: c186 643f dee7 d43f b983 eb3f ed3b b83f
00000010: c84f 963f d02b 1940 4ee2 8d3f e1ab a03f

convs.0.bn2.bias f4 [8]
-0.3563892 -0.5423175 -0.86671793 -0.9691726 0.34373185 -0.33597896 0.06685334 -0.19340827
00000000: a578 b6be 52d5 0abf 3ae1 5dbf b21b 78bf
00000010: 9ffd af3e 6f05 acbe 67ea 883d d10c 46be

convs.0.bn2.running_mean f4 [8]
5.2761574 4.9841776 2.8730283 7.1897063 6.310644 4.34426 6.5371194 9.149446
00000000: 48d6 a840 627e 9f40 b2df 3740 1312 e640
00000010: ccf0 c940 2e04 8b40 1530 d140 2164 1241

convs.0.bn2.running_var f4 [8]
57.723938 31.749594 20.09711 13.477225 22.170479 5.6160865 11.007589 37.871227
00000000: 50e5 6642 2bff fd41 e2c6 a041 b7a2 5741
00000010: 245d b141 fbb6 b340 161f 3041 237c 1742

convs.1.fc_full.weight f4 [16, 40]
-0.92330766 0.7748746 1.5348525 0.7899894 -0.73087454 1.2300208 0.30857915 0.083217606
-1.3164979 -0.11682969 -0.18206903 -0.6145714 1.8070922 0.3973223 1.6879843 -1.9151982
-0.47317 -0.19869727 1.8562893 1.5847987 1.408221 -0.6412226 -0.22561558 1.7933935
1.8892994 1.2912861 -0.8167781 -0.40817964 1.8220887 1.8799998 1.3417306 -0.19256882
1.2425874 1.03638 -1.5160154 -0.0955708 -0.14063488 1.1298909 0.9527089 0.1009805
0.27320078 -1.2976441 1.1089095 -0.11920257 -0.17986333 -0.059538435 -0.052367706 -0.76408964
0.0018303159 -0.66743 -0.7312458 -0.72475195 0.24668948 0.47003922 0.71996236 1.3410096
0.30687428 0.09651634 -0.86410934 -0.69254 -0.61825603 0.33776736 0.21250199 -0.8951572
-0.63820004 -0.30909592 0.23807889 0.21835387 -0.9618817 -0.6570729 -0.3342707 0.83367175
-0.13145947 -0.7992217 -1.3487233 -0.037548937 -0.093055956 -0.018727975 -0.02037347 -0.4223259
0.3265762 -0.32340923 0.46352333 0.35203344 0.34210336 -0.093852885 0.2536429 0.25514382
-3.5401082 0.42240378 0.35908097 -0.67309785 -0.3461021 -0.06287148 -0.08459451 0.26112515
0.006586468 -0.31858456 -0.3577456 -0.35977346 -0.11945744 0.24538507 -0.1008968 -0.49839997
-0.19474557 -0.36360297 0.29012632 -0.27758387 -0.47117743 -0.38369024 -0.20992227 0.15881811
-0.021689413 -0.22523053 -0.23136471 -0.15674672 0.035664387 -2.4825652 -1.2866505 2.870913
0.5225655 -0.38319886 -1.1529998 0.018094921 0.14043325 -0.30010444 -0.38436654 0.046398003
-0.63691974 1.1410347 0.6958705 0.2724394 1.9967998 0.05436158 1.32519 0.06374192
0.5974704 0.57982445 0.5259783 -0.28079027 -0.31341648 0.56315255 0.55703574 0.42618844
-0.13606562 -0.49799296 0.5398157 0.5756885 0.47262222 -0.13712554 -0.3464501 0.68473935
-0.401401 -0.71755606 -0.21109118 0.06103074 -0.11246922 -0.3246399 -1.2196269 -1.5047247
-0.51368666 -0.0030255096 0.00019792057 -0.29052097 0.41160715 -1.0006208 0.48573366 0.60792357
-0.41763696 -1.3283138 -0.23597552 0.1300145 0.7144882 1.3352199 1.0803349 -0.52376246
-0.64753264 -1.4828994 -2.6803877 -1.5352532 -0.61267525 -0.53645813 -1.3547904 -2.5555725
-1.6752431 -0.5639153 -0.29311103 -1.2362454 -2.59203 -1.6169834 -0.51712584 0.90134597
0.65925145 0.47239792 0.23315506 -0.09924471 -0.16686434 -7.5332522 -6.6951213 -3.9279053
0.58938324 -0.47891307 -0.5824694 0.8827191 0.08824496 -1.1430569 -0.14630336 -0.0736869
0.54040474 -1.0052767 1.5603194 0.44735628 -1.2227342 -1.4111502 -0.5780728 0.07133059
-0.43435356 -0.6752082 -1.9536232 -0.7195094 -0.40105706 -0.17478104 -0.4158498 -1.9964827
-0.7927944 -0.09112111 -0.24989153 -0.4904021 -2.0319645 -0.56468564 -0.017000608 1.6251411
1.1029814 0.058301598 -0.67588806 -0.020145554 -0.1517019 -2.256346 -2.197424 -0.015673516
-0.12893781 0.6442558 0.55868334 -0.38555324 0.06788411 0.24070066 0.10835318 0.8338872
-1.0388495 1.9531751 -1.3739755 -1.1914642 -1.0937573 -0.7369575 -0.16099 0.19282435
00000000: e45d 6cbf 2f5e 463f 0c76 c43f bf3c 4a3f
00000010: 981a 3bbf 5271 9d3f 16fe 9d3e fe6d aa3d
00000020: 0183 a8bf 6844 efbd 4e70 3abe 8d54 1dbf
00000030: cc4e e73f d46d cb3e df0f d83f 3725 f5bf
00000040: 5743 f2be 4c77 4bbe e39a ed3f afda ca3f
00000050: 9640 b43f 2a27 24bf c507 67be eb8d e53f
00000060: 90d4 f13f dd48 a53f 5f18 51bf ecfc d0be
00000070: 343a e93f d5a3 f03f d4bd ab3f c330 45be
00000080: 1b0d 9f3f 1aa8 843f cb0c c2bf a0ba c3bd
00000090: 9702 10be 44a0 903f bbe4 733f ddce ce3d
000000a0: f9e0 8b3e 3419 a6bf bff0 8d3f 7a20 f4bd
000000b0: 182e 38be 93de 73bd 857f 56bd 619b 43bf
000000c0: 36e7 ef3a b1dc 2abf ed32 3bbf 5889 39bf
000000d0: 2b9c 7c3e fba8 f03e 744f 383f 34a6 ab3f
000000e0: a01e 9d3e 5caa c53d 4536 5dbf 4d4a 31bf
000000f0: 0746 1ebf d8ef ac3e 1f9a 593e 0629 65bf
00000100: 1461 23bf d241 9ebe f4ca 733e 2898 5f3e
00000110: e13d 76bf ee35 28bf 8725 abbe 836b 553f
00000120: 509d 06be cb99 4cbf f7a2 acbf eacc 19bd
00000130: 1f94 bebd 696b 99bc 43e6 a6bc 1a3b d8be
00000140: ff34 a73e e595 a5be ee52 ed3e ba3d b43e
00000150: 2c28 af3e f135 c0bd 7bdd 813e 36a2 823e
00000160: 2291 62c0 4f45 d83e 76d9 b73e 2450 2cbf
00000170: 4b34 b1be c3c2 80bd e33f adbd 32b2 853e
00000180: 4cd3 d73b 841d a3be 6e2a b7be 3a34 b8be
00000190: 1aa6 f4bd 3946 7b3e fba2 cebd 482e ffbe
000001a0: 626b 47be 2b2a babe 708b 943e 791f 8ebe
000001b0: 2b3e f1be 0c73 c4be ddf5 56be 37a1 223e
000001c0: ffad b1bc d5a2 66be dfea 6cbe 3682 20be
000001d0: d214 123d 59e2 1ec0 f7b0 a4bf 0abd 3740
000001e0: dac6 053f a432 c4be 7f95 93bf cd3b 943c
000001f0: bccd 0f3e 4aa7 99be b1cb c4be d50b 3e3d
00000200: 2c0d 23bf 6d0d 923f 9224 323f 2d7d 8b3e
00000210: 2397 ff3f 40aa 5e3d d39f a93f 208b 823d
00000220: d2f3 183f 606f 143f 84a6 063f bec3 8fbe
00000230: 2078 a0be c42a 103f e599 0e3f 5f35 da3e
00000240: c954 0bbe eff8 febe 5d31 0a3f 5260 133f
00000250: 8afb f13e a36a 0cbe e861 b1be 144b 2f3f
00000260: 6f84 cdbe c1b1 37bf 4928 58be 5ffb 793d
00000270: 4356 e6bd 3337 a6be bc1c 9cbf d29a c0bf
00000280: f880 03bf a147 46bb e688 4f39 2abf 94be
00000290: 2cbe d23e 5814 80bf 15b2 f83e e1a0 1b3f
000002a0: 83d4 d5be 3006 aabf 91a3 71be 8522 053e
000002b0: b3e8 363f 7ce8 aa3f 6a48 8a3f 4c15 06bf
000002c0: b3c4 25bf a6cf bdbf 798b 2bc0 2d83 c4bf
000002d0: 49d8 1cbf 5255 09bf c669 adbf 808e 23c0
000002e0: 5e6e d6bf c15c 10bf a612 96be 4a3d 9ebf
000002f0: d2e3 25c0 50f9 cebf 5c62 04bf 9cbe 663f
00000300: b4c4 283f 24de f13e 33c0 6e3e cf40 cbbd
00000310: 7cde 2abe 6710 f1c0 6f3e d6c0 cd62 7bc0
00000320: d2e1 163f 1834 f5be b71c 15bf e1f9 613f
00000330: c6b9 b43d b04f 92bf 8cd0 15be 28e9 96bd
00000340: f757 0a3f e8ac 80bf 8cb8 c73f e20b e53e
00000350: 8e82 9cbf 92a0 b4bf 94fc 13bf c615 923d
00000360: 9763 debe 72da 2cbf 5310 fabf c531 38bf
00000370: 5a57 cdbe cdf9 32be 44ea d4be bf8c ffbf
00000380: 93f4 4abf b49d babd 91e3 7fbe fc15 fbbe
00000390: b50b 02c0 3d8f 10bf dc44 8bbc a004 d03f
000003a0: 7f2e 8d3f a8cd 6e3d 0007 2dbf 4a08 a5bc
000003b0: be57 1bbe f967 10c0 98a2 0cc0 bf65 80bc
000003c0: 4608 04be f3ed 243f df05 0f3f 3c67 c5be
000003d0: d306 8b3d 3c7a 763e 46e8 dd3d a279 553f
000003e0: 05f9 84bf a401 fa3f 6ede afbf e681 98bf
000003f0: 3d00 8cbf 3fa9 3cbf 90da 24be bf73 453e

convs.1.fc_full.bias f4 [16]
0.029111803 0.011099729 -0.023454601 -0.074458085 0.13688943 0.07700421 -0.013557779 -0.079673536
0.1743138 -0.122333005 -0.16686085 0.10558391 -0.09949894 0.11794717 0.09793526 -0.0012862858
00000000: e07b ee3c a3db 353c dd23 c0bc 7b7d 98bd
00000010: be2c 0c3e 62b4 9d3d 7221 5ebc e12b a3bd
00000020: 517f 323e ba89 fabd 92dd 2abe 613c d83d
00000030: 1ac6 cbbd 498e f13d 4892 c83d 9798 a8ba

convs.1.bn1.weight f4 [16]
3.408849 2.5923233 2.969856 1.5941937 3.078931 3.3511405 2.4184964 2.3620431
1.8426439 2.0500388 1.8577738 1.1260988 0.8586261 1.4136926 1.791975 2.7451344
00000000: 952a 5a40 a0e8 2540 1f12 3e40 8a0e cc3f
00000010: 350d 4540 1679 5640 a5c8 1a40 b72b 1740
00000020: c1db eb3f d633 0340 88cb ed3f 0124 903f
00000030: ecce 5b3f e1f3 b43f 705f e53f 48b0 2f40

convs.1.bn1.bias f4 [16]
-3.3180714 0.69302565 -0.73983884 -3.2652254 -0.91494685 -2.1433084 0.02756975 -0.93952554
0.12590547 -0.39360717 -1.7685896 -3.326736 0.6380134 -2.1918888 -0.18623906 -0.26885393
00000000: 485b 54c0 216a 313f 1466 3dbf 74f9 50c0
00000010: f539 6abf f72b 09c0 f5d9 e13c bf84 70bf
00000020: 5ded 003e e186 c9be 2561 e2bf 3ee9 54c0
00000030: d954 233f e847 0cc0 74b5 3ebe 39a7 89be

convs.1.bn1.running_mean f4 [16]
13.091311 -3.7424552 -6.422454 5.8646584 -16.256695 -12.520789 -1.4070735 -8.327944
15.03373 -4.4454837 -7.5067096 17.404465 -16.750504 -10.799457 1.7090855 -15.659657
00000000: 0376 5141 6384 6fc0 be84 cdc0 48ab bb40
00000010: b60d 82c1 2755 48c1 fc1a b4bf 423f 05c1
00000020: 288a 7041 6741 8ec0 f736 f0c0 583c 8b41
00000030: 0801 86c1 93ca 2cc1 50c3 da3f f48d 7ac1

convs.1.bn1.running_var f4 [16]
17.058475 3.895542 9.480843 13.387787 9.138507 8.404268 9.045404 5.8157454
20.440845 5.437762 6.549138 13.331094 8.550961 7.2773194 15.722521 7.316694
00000000: c277 8841 8f50 7940 88b1 1741 6034 5641
00000010: 5337 1241 e277 0641 fab9 1041 961a ba40
00000020: da86 a341 2502 ae40 8a92 d140 294c 5541
00000030: bcd0 0841 cddf e840 728f 7b41 5b22 ea40

convs.1.bn2.weight f4 [8]
2.5887601 2.3348045 1.6386415 1.2535667 1.692893 2.1087835 2.5681522 1.5652877
00000000: 3fae 2540 706d 1540 01bf d13f e074 a03f
00000010: b8b0 d83f 4ff6 0640 9b5c 2440 595b c83f

convs.1.bn2.bias f4 [8]
-0.63488406 -0.7025689 -0.9298801 -1.9359928 -0.112339154 -0.8350782 0.393536 -0.35048872
00000000: c387 22bf 8edb 33bf 9f0c 6ebf 9dce f7bf
00000010: 1212 e6bd afc7 55bf 8d7d c93e 4273 b3be

convs.1.bn2.running_mean f4 [8]
0.8776858 7.223987 1.9423211 0.11796228 5.537131 0.6104953 4.188226 5.3506656
00000000: 04b0 603f e72a e740 fa9d f83f 3596 f13d
00000010: 2d30 b140 6c49 1c3f f305 8640 a738 ab40

convs.1.bn2.running_var f4 [8]
1.2570641 55.213585 8.528185 0.075802386 23.847805 0.5073657 6.1575837 135.0026
00000000: 7ae7 a03f b6da 5c42 7273 0841 483e 9b3d
00000010: 4ec8 be41 b8e2 013f ed0a c540 aa00 0743

conv_to_fc.weight f4 [16, 11]
-0.17699368 0.505665 0.03709761 0.25852543 -0.5278381 -0.25079414 -0.103415765 -0.18574469
-0.26527855 0.7225547 0.10080474 0.016248524 -0.29145268 -0.42311895 -0.43344608 0.28461385
-0.19168718 -0.6140056 0.19038841 0.61111766 -0.54729575 -0.19025542 -0.45777655 -0.15285501
-0.4918833 -0.60519135 -0.11428145 -0.35576928 -0.17612872 -0.20667936 -0.27468663 -0.3481478
-0.35140148 -0.1358259 -0.32512584 0.19683775 -0.1809058 0.6675819 0.2281601 -0.73267263
0.53561205 1.7505294 -0.7009657 -0.24166812 -0.047056917 -0.22613232 -0.28546053 0.019285664
0.06663376 -0.399569 -0.4701332 -0.016782867 0.037135046 -0.2544835 -0.20159869 -0.56390333
-0.20098668 -0.21331324 -0.383696 -0.47109514 -0.4689492 -0.29445538 -0.5437337 -0.38584918
-0.52802247 -0.65609145 -0.58829355 0.0006719646 -0.08161008 -0.20365696 -0.637075 -0.2780037
0.27229512 -0.22994848 -0.35606146 -0.1429989 -0.09097122 -0.049626272 0.30803353 -0.07114919
-0.28523502 -0.53181475 -0.17011578 0.34242666 -0.2708822 -0.5028771 0.57503456 -0.08181215
-0.79234946 0.35412663 -0.29461768 -0.23141246 -0.14176582 0.6705892 0.3669241 -0.48319903
0.1503792 0.014136506 -0.17550184 -0.6820156 -0.07906314 -0.16589546 -0.55689275 -0.22395
0.31358564 0.06701741 -0.28828904 0.55901575 -0.08912487 -0.42391568 -0.42703423 -0.5130423
-0.1497296 -0.4011981 0.030530006 -0.30133796 -0.24063945 -0.1144908 0.51269436 -0.29965663
0.087314 -0.24060336 -0.34316248 -0.7859138 -0.31843692 -0.3881795 0.051313482 -0.6113619
-0.6879306 -0.17725325 -0.2651355 -0.26158047 -0.655991 0.038817905 -0.44507447 -0.0062112464
-0.5454977 0.20745263 -0.20827329 -0.3357826 0.39010468 -0.5517891 -0.28747156 0.059792437
-0.24530205 -0.4748173 -0.34845203 -0.38115346 0.09648995 -0.89355904 -0.1031631 -0.5133823
-0.44632664 -0.52980417 -0.37911683 -0.1950198 -0.42340305 -0.45262 -0.011089315 -0.60476357
-0.4670142 -0.46637022 -0.32224762 -0.13653043 -0.39255804 -0.59308803 -0.36192626 0.21513627
-0.29580593 0.5143926 0.23464188 -0.57281584 0.3976579 1.2429107 -0.3294217 0.07310638
00000000: d53d 35be 4373 013f aaf3 173d 725d 843e
00000010: 6620 07bf 1768 80be a5cb d3bd db33 3ebe
00000020: 97d2 87be 58f9 383f b772 ce3d a01b 853c
00000030: 4939 95be 0ca3 d8be a5ec ddbe e8b8 913e
00000040: a549 44be 792f 1dbf 2ef5 423e 3572 1c3f
00000050: 931b 0cbf 51d2 42be b061 eabe 0686 1cbe
00000060: 21d8 fbbe d2ed 1abf 650c eabd 6427 b6be
00000070: 165b 34be c1a3 53be baa3 8cbe 6e40 b2be
00000080: e5ea b3be f215 0bbe e576 a6be d68f 493e
00000090: 5f3f 39be a6e6 2a3f cda2 693e 6f90 3bbf
000000a0: df1d 093f 5911 e03f 7d72 33bf d977 77be
000000b0: c1be 40bd 3b8f 67be e227 92be f8fc 9d3c
000000c0: 4877 883d 4f94 ccbe 4cb5 f0be 397c 89bc
000000d0: eb1a 183d a94b 82be e36f 4ebe f85b 10bf
000000e0: 74cf 4dbe c96e 5abe cd73 c4be 6233 f1be
000000f0: 1c1a f0be dbc2 96be 2232 0bbf 068e c5be
00000100: 7b2c 07bf 9cf5 27bf 689a 16bf c826 303a
00000110: 3023 a7bd 738b 50be 5917 23bf 8056 8ebe
00000120: 446a 8b3e 9d77 6bbe b04d b6be 4e6e 12be
00000130: 1e4f babd eb44 4bbd 92b6 9d3e abb6 91bd
00000140: 530a 92be 0325 08bf d532 2ebe 8c52 af3e
00000150: 12b1 8abe 8ebc 00bf 7735 133f 218d a7bd
00000160: 6ad7 4abf 1650 b53e 21d8 96be 63f7 6cbe
00000170: 0f2b 11be bcab 2b3f 7add bb3e dd65 f7be
00000180: 01fd 193e ce9c 673c c1b6 33be 9398 2ebf
00000190: dbeb a1bd 80e0 29be 8690 0ebf 2653 65be
000001a0: 4c8e a03e 6d40 893d 9f9a 93be a81b 0f3f
000001b0: 1a87 b6bd 7a0b d9be 3ba4 dabe bd56 03bf
000001c0: b752 19be d669 cdbe 101a fa3c f848 9abe
000001d0: 306a 76be 277a eabd f03f 033f 986c 99be
000001e0: afd1 b23d ba60 76be feb2 afbe a631 49bf
000001f0: 2a0a a3be 77bf c6be 162e 523d 3782 1cbf
00000200: 381c 30bf e081 35be d7bf 87be e0ed 85be
00000210: 07ef 27bf 86ff 1e3d cde0 e3be b687 cbbb
00000220: bda5 0bbf 766e 543e 9845 55be b2eb abbe
00000230: cdbb c73e 0d42 0dbf 792f 93be eae8 743d
00000240: 7630 7bbe 411b f3be 4e68 b2be 8c26 c3be
00000250: 869c c53d 49c0 64bf 2d47 d3bd 066d 03bf
00000260: ed84 e4be 3fa1 07bf 9a1b c2be 45b3 47be
00000270: 49c8 d8be cfbd e7be f5af 35bc c9d1 1abf
00000280: 7c1c efbe 14c8 eebe a4fd a4be a2ce 0bbe
00000290: 5efd c8be 9ed4 17bf 664e b9be af4c 5c3e
000002a0: e073 97be 3caf 033f f645 703e 0fa4 12bf
000002b0: d199 cb3e b317 9f3f f6a9 a8be ccb8 953d

conv_to_fc.bias f4 [16]
-0.10921018 0.046855852 -0.4264384 -0.048364837 -0.47853857 -0.5387801 -0.22749144 -0.09604034
-0.16796133 0.14309669 0.0093061505 -0.4057794 -0.16582374 -0.5222162 -0.48272207 -0.15487164
00000000: 96a9 dfbd eceb 3f3d 2256 dabe 351a 46bd
00000010: 0203 f5be 7eed 09bf 84f3 68be ccb0 c4bd
00000020: 0efe 2bbe f087 123e d378 183c 51c2 cfbe
00000030: b3cd 29be f6af 05bf 5927 f7be ac96 1ebe

fcs.0.weight f4 [16, 16]
-0.37573323 -0.037044846 0.08311215 -0.22044346 -0.2473962 -0.28259778 -0.24795368 -0.9309854
-0.33269662 -0.20661633 -0.15697567 -0.2511629 -0.37703788 -0.35995054 -0.19607691 0.09971709
-0.19380571 -0.46302313 -0.45940694 -0.5560686 -0.47190505 0.09075972 0.27928013 0.14078057
-0.3506969 -0.3667662 -0.3728738 -0.1407462 -0.49175045 -0.4341811 -0.29539213 -0.57076603
-0.73763573 0.017749993 -0.09164252 0.48516908 -0.038394146 -0.20481597 -0.26553783 -0.92851126
-0.4516824 -0.23419563 0.0032009815 -0.2432551 -0.15783997 -0.26316038 0.2757444 0.34328237
-0.36513826 -0.6580839 -0.34186938 -0.80160165 -0.1987318 -0.6459573 -0.44533706 0.0013293367
-0.5327676 -0.27836153 -0.35273275 -0.20576075 -0.52073795 -0.0014599604 -0.5536729 -0.5529837
-0.4152759 -0.5346348 -0.3835896 -0.36124957 -0.09220707 -0.35175684 -0.5311488 -0.5563879
-0.34869045 -0.48921013 -0.22513576 -0.49486586 -0.2467414 -0.35686845 -0.4745733 -0.23809145
-0.37703535 -0.48968926 0.087845504 -0.73433936 -0.23781095 -0.44955605 -0.21038166 0.055308275
-0.49665698 -0.3926153 -0.5599399 -0.3557219 -0.20291947 0.19784231 -0.49535325 -0.50428957
0.200614 -0.42072034 -0.03917265 -0.48541254 0.04866073 0.57014036 0.24755968 -0.1111252
-0.114593804 0.20744915 -0.3375568 -0.24354358 -0.069234654 0.04268118 -0.0548052 -0.41598397
-0.0942693 -0.55433136 -0.6004391 -0.83580035 -0.5669707 0.08484028 -0.30728358 -0.11716637
-0.26853293 -0.33891854 -0.47379613 -0.49543342 -0.22504175 -0.2931552 -0.07333552 -0.59043604
-0.012807224 -0.47946933 -0.26476067 -0.34330553 -0.15069497 -0.24824034 -0.18188594 -0.2155094
-0.33577225 -0.18184741 -0.16029982 -0.4350217 -0.5512916 -0.09526412 -0.5449575 -0.676205
0.06951784 -0.32381618 -0.16003416 -0.6378151 -0.4614149 0.383309 -0.0078933695 -0.16235861
-0.2577778 -0.18212521 -0.13632022 -0.22555882 -0.46456107 -0.17511937 -0.31284192 -0.235131
-0.18931094 -0.622455 0.059096932 -0.519629 -0.37132496 -0.3890681 -0.31521153 -0.04009057
-0.59276265 -0.6820102 -0.92917126 -0.11730439 -0.07846868 0.08457625 -0.8464755 -0.85519737
0.17293307 -0.27139235 -0.027032183 -0.3999854 -0.24335907 0.18893428 0.4402499 -0.19056505
-0.050537612 -0.0758711 -0.14034685 -0.3729632 -0.0012054532 -0.35565382 -0.37288508 -0.49668685
-0.039428078 -0.40338638 -0.12411921 -0.636168 -0.4402221 0.1548374 0.1342215 -0.068751544
-0.25054651 -0.30889824 -0.40798822 -0.046678543 0.007801326 -0.18321851 0.026403943 -0.48618436
-0.36090446 -0.382367 -0.26180205 -0.49394354 -0.17003438 -0.14762826 -0.108009845 0.034849167
-0.33657756 -0.44253543 -0.4757154 -0.062589325 -0.40563282 -0.21335897 -0.4517435 -0.34531355
-0.2093677 -0.03461904 -0.20939463 -0.12426638 -0.2712042 -0.20088781 -0.45095378 -0.7962663
-0.12092202 -0.034487817 -0.06631076 -0.11675956 0.0026122064 -0.04985182 0.2347978 0.015712174
-0.4932722 -0.76984805 -0.452377 -0.6418209 -0.7249337 0.02237008 -0.45799753 0.12386461
-0.5488619 -0.6715339 -0.9065118 -0.36588463 -0.34741455 -0.25313598 -0.41460472 -1.0422618
00000000: 1b60 c0be 56bc 17bd b436 aa3d eebb 61be
00000010: 6e55 7dbe a8b0 90be 92e7 7dbe 0f55 6ebf
00000020: 3657 aabe 3b93 53be 3bbe 20be 6c98 80be
00000030: 1c0b c1be 704b b8be 63c8 48be 7938 cc3d
00000040: 0175 46be 5e11 edbe 6337 ebbe 835a 0ebf
00000050: 8a9d f1be 3be0 b93d cefd 8e3e c828 103e
00000060: 8b8e b3be c8c8 bbbe 51e9 bebe c61f 10be
00000070: b7c6 fbbe fc4c debe a33d 97be b91d 12bf
00000080: b2d5 3cbf 6f68 913c 13af bbbd 1568 f83e
00000090: 2e43 1dbd 47bb 51be 93f4 87be eab2 6dbf
000000a0: ea42 e7be fbd0 6fbe 8fc7 513b dd17 79be
000000b0: cda0 21be f5bc 86be 5f2e 8d3e b5c2 af3e
000000c0: 67f3 babe 3078 28bf 8109 afbe c435 4dbf
000000d0: 5980 4bbe 755d 25bf 3803 e4be 233d ae3a
000000e0: 7563 08bf 6785 8ebe 6399 b4be f2b2 52be
000000f0: 154f 05bf 245c bfba 82bd 0dbf 5790 0dbf
00000100: 0b9f d4be d4dd 08bf db65 c4be b4f5 b8be
00000110: 0fd7 bcbd 7919 b4be 5ef9 07bf 706f 0ebf
00000120: 8e87 b2be c079 fabe fd89 66be 0f5f fdbe
00000130: c7a9 7cbe 76b7 b6be 46fb f2be 3fce 73be
00000140: c70a c1be 8db8 fabe 58e8 b33d aafd 3bbf
00000150: b784 73be 362c e6be 4a6e 57be ee8a 623d
00000160: d349 febe df04 c9be 3958 0fbf 2e21 b6be
00000170: 1fca 4fbe 2d97 4a3e f19e fdbe 1f19 01bf
00000180: c26d 4d3e a868 d7be 8073 20bd fe87 f8be
00000190: 7950 473d b8f4 113f 4980 7d3e 9c95 e3bd
000001a0: 28b0 eabd 8d6d 543e 3fd4 acbe 7d63 79be
000001b0: e6ca 8dbd 76d2 2e3d 6b7b 60bd dafb d4be
000001c0: 4310 c1bd a9e8 0dbf 60b6 19bf 03f7 55bf
000001d0: fe24 11bf bec0 ad3d 4654 9dbe ecf4 efbd
000001e0: 267d 89be bb86 adbe 6895 f2be 73a9 fdbe
000001f0: 5871 66be 7018 96be ef30 96bd d126 17bf
00000200: 64d5 51bc 017d f5be b68e 87be bec5 afbe
00000210: c84f 1abe b732 7ebe 4f40 3abe 7fae 5cbe
00000220: 57ea abbe 3536 3abe a325 24be 2abb debe
00000230: 7221 0dbf d619 c3bd 5682 0bbf c51b 2dbf
00000240: 5f5f 8e3d 3ccb a5be ffdf 23be da47 23bf
00000250: 933e ecbe 1441 c43e 3153 01bc 5641 26be
00000260: 74fb 83be 087f 3abe 8797 0bbe e4f8 66be
00000270: f3da edbe 7e52 33be d12c a0be 2ec6 70be
00000280: bada 41be 3659 1fbf a00f 723d 6806 05bf
00000290: 4e1e bebe ef33 c7be 6863 a1be 0236 24bd
000002a0: 4bbf 17bf 3898 2ebf 2bde 6dbf 493d f0bd
000002b0: 30b4 a0bd 5036 ad3d 9eb2 58bf 37ee 5abf
000002c0: 5e15 313e f0f3 8abe 9972 ddbc e3ca ccbe
000002d0: 1f33 79be fd77 413e 6f68 e13e 7c23 43be
000002e0: 8700 4fbd 4f62 9bbd 16b7 0fbe 08f5 bebe
000002f0: 4c00 9eba 4218 b6be cbea bebe bd4d febe
00000300: 567f 21bd a988 cebe 3632 febd e8db 22bf
00000310: cb64 e1be b28d 1e3e 5c71 093e 9ccd 8cbd
00000320: a247 80be e927 9ebe d5e3 d0be 0032 3fbd
00000330: 44a2 ff3b a29d 3bbe 154d d83c 28ed f8be
00000340: 78c8 b8be 9cc5 c3be eb0a 86be 2be6 fcbe
00000350: 7e1d 2ebe dd2b 17be 4434 ddbd 00be 0e3d
00000360: e553 acbe 0194 e2be f890 f3be d52e 80bd
00000370: 1baf cfbe c67a 5abe ed4a e7be f0cc b0be
00000380: 7d64 56be b2cc 0dbd 8c6b 56be 5f7f febd
00000390: 47db 8abe 89b5 4dbe 6ae3 e6be 1cd8 4bbf
000003a0: f7a5 f7bd 1943 0dbd f0cd 87bd a31f efbd
000003b0: 8d31 2b3b 6c31 4cbd d66e 703e d1b6 803c
000003c0: 2c8e fcbe c314 45bf f59d e7be 604e 24bf
000003d0: 4195 39bf 7541 b73c a77e eabe bbac fd3d
000003e0: 3782 0cbf a5e9 2bbf 2811 68bf 3b55 bbbe
000003f0: 52e0 b1be 0a9b 81be 1247 d4be d668 85bf

fcs.0.bias f4 [16]
-0.098227665 -0.41002527 -0.24002141 -0.42482296 -0.2405308 -0.48860836 -0.16591603 -0.36096832
-0.2879041 -0.320199 -0.094768584 -0.0054235547 -0.035660632 -0.05894744 -0.32808393 -0.13809364
00000000: 962b c9bd d5ee d1be 2cc8 75be 6582 d9be
00000010: b54d 76be e02a fabe e4e5 29be d7d0 b8be
00000020: 2b68 93be 20f1 a3be 0816 c2bd 13b8 b1bb
00000030: e210 12bd df72 71bd 9efa a7be 6b68 0dbe

fc_out.weight f4 [1, 16]
0.050466593 -0.19351049 0.29977265 -0.31100488 -0.095101945 -0.2880886 -0.35337463 -0.25370055
-0.16899766 -0.14772686 -0.28336808 -0.19488642 -0.24169484 -0.18412663 0.03558217 -0.32019162
00000000: 0fb6 4e3d 9d27 46be cd7b 993e 083c 9fbe
00000010: cfc4 c2bd 5980 93be 85ed b4be 0ae5 81be
00000020: b90d 2dbe b645 17be 9f15 91be 4e90 47be
00000030: da7e 77be b18b 3cbe 9cbe 113d 28f0 a3be

exp_avg f4 [8, 102]
-3.4796332e-05 0.0 0.0004318196 -0.00011055533 -9.367957e-05 -2.7994047e-05 0.0 -0.00015052369
-7.591735e-05 4.9239996e-05 -3.0359597e-05 0.0 0.0 9.5859024e-05 0.0 0.0
-0.0001788145 0.0 0.0 0.0 -0.0001788145 0.00018052757 -0.00031672348 0.0001495186
3.9769915e-05 0.0 0.0 0.00029442887 -0.00010164058 -0.00010933604 -3.0359597e-05 0.0
0.0 0.0 -0.0001788145 0.0 0.0 -0.0001788145 0.0 1.8880388e-05
-0.00024218737 9.252608e-05 -0.00016083503 0.00034470862 0.0 0.0 0.0 0.00039702328
-1.4696277e-05 -9.367957e-05 -2.7994047e-05 -0.0001788145 -0.00015052369 -7.591735e-05 4.9239996e-05 -3.0359597e-05
0.0 0.0 0.0 7.456644e-05 0.00020516623 -0.00022663995 0.0 0.0
-0.0001788145 0.0 0.0 0.0 0.0 0.0 0.0 0.0
6.699891e-05 6.438286e-05 -0.0002091741 0.0 0.0 0.0 0.0004318196 -8.2955485e-05
-0.0004397896 -3.4796332e-05 0.0 -0.00020756059 7.793324e-05 -0.00012167367 -5.8294678e-05 -0.00014535169
-1.5483334e-05 0.00034470862 0.0 0.0 -0.00015280084 0.0 0.0 0.0
0.0004125538 1.071228e-05 -0.0004028299 -4.6062905e-05 2.865839e-06 4.9839866e-05 1.696783e-05 0.0
4.5475892e-05 1.3991275e-06 -5.231299e-06 0.00016428466 0.0 -1.2391731e-05 2.4193323e-05 -1.144564e-05
-4.217296e-06 0.0 0.0 -0.00013644723 0.0 0.0 7.599922e-05 0.0
0.0 0.0 7.599922e-05 -0.00013980277 -7.790462e-05 3.437403e-05 0.00026592115 0.0
0.0 5.570665e-05 2.90503e-06 2.8193464e-05 -4.217296e-06 0.0 0.0 0.0
7.599922e-05 0.0 0.0 7.599922e-05 0.0 -1.5662936e-05 -0.0001399696 0.00018111458
-5.0445047e-05 0.00010755067 0.0 0.0 0.0 6.244385e-05 -0.00013504807 -5.231299e-06
0.00016428466 7.599922e-05 -1.2391731e-05 2.4193323e-05 -1.144564e-05 -4.217296e-06 0.0 0.0
0.0 0.0002489532 -0.00032829485 0.00016192922 0.0 0.0 7.599922e-05 0.0
0.0 0.0 0.0 0.0 0.0 0.0 6.919259e-05 2.326682e-05
7.17819e-05 0.0 0.0 0.0 4.5475892e-05 -6.0448085e-05 0.00015659112 1.696783e-05
0.0 -3.8613307e-06 -0.00014653995 0.00015905335 9.282914e-05 1.8366953e-05 -6.8811976e-05 0.00010755067
0.0 0.0 8.628505e-05 0.0 0.0 0.0 -1.1906637e-05 -0.00011107796
1.758456e-05 0.00016537194 2.6557586e-06 9.674174e-06 -6.8062195e-06 0.0 0.00012223581 -5.1411513e-05
-8.698153e-05 -2.8627204e-05 0.0 -0.00014641607 -6.173328e-05 -4.162986e-05 -2.9172834e-05 0.0
0.0 5.850684e-05 0.0 0.0 0.000118727236 0.0 0.0 0.0
0.000118727236 0.00013016019 -0.00040913795 1.49663965e-05 -8.024361e-06 0.0 0.0 7.634014e-05
-9.930365e-05 -0.00021989967 -2.9172834e-05 0.0 0.0 0.0 0.000118727236 0.0
0.0 0.000118727236 0.0 -7.0802686e-05 -0.00020406005 -2.2101729e-05 -0.00010142218 0.00012635087
0.0 0.0 0.0 0.00011542959 7.0953106e-06 -8.698153e-05 -2.8627204e-05 0.000118727236
00000000: 47f2 11b8 0000 0000 d865 e239 f1d9 e7b8
00000010: d675 c4b8 c2d4 eab7 0000 0000 e5d5 1db9
00000020: d135 9fb8 0b87 4e38 bdac feb7 0000 0000
00000030: 0000 0000 ec07 c938 0000 0000 0000 0000
00000040: 2780 3bb9 0000 0000 0000 0000 0000 0000
00000050: 2780 3bb9 004c 3d39 e80d a6b9 18c8 1c39
00000060: 9fce 2638 0000 0000 0000 0000 935d 9a39
00000070: df27 d5b8 574b e5b8 bdac feb7 0000 0000
00000080: 0000 0000 0000 0000 2780 3bb9 0000 0000
00000090: 0000 0000 2780 3bb9 0000 0000 5361 9e37
000000a0: adf3 7db9 900a c238 d3a5 28b9 02ba b439
000000b0: 0000 0000 0000 0000 0000 0000 9027 d039
000000c0: 0790 76b7 d675 c4b8 c2d4 eab7 2780 3bb9
000000d0: e5d5 1db9 d135 9fb8 0b87 4e38 bdac feb7
000000e0: 0000 0000 0000 0000 0000 0000 8d60 9c38
000000f0: e421 5739 33a6 6db9 0000 0000 0000 0000
00000100: 2780 3bb9 0000 0000 0000 0000 0000 0000
00000110: 0000 0000 0000 0000 0000 0000 0000 0000
00000120: c481 8c38 4905 8738 bf55 5bb9 0000 0000
00000130: 0000 0000 0000 0000 d865 e239 63f8 adb8
00000140: 9093 e6b9 47f2 11b8 0000 0000 9fa4 59b9
00000150: 1770 a338 0e2b ffb8 6f81 74b8 8c69 18b9
00000160: 35e2 81b7 02ba b439 0000 0000 0000 0000
00000170: 2a39 20b9 0000 0000 0000 0000 0000 0000
00000180: 094c d839 e4b8 3337 ea32 d3b9 ab33 41b8
00000190: bd52 4036 260b 5138 2356 8e37 0000 0000
000001a0: 5ebd 3e38 a8c9 bb35 8488 afb6 d443 2c39
000001b0: 0000 0000 14e6 4fb7 c4f2 ca37 a606 40b7
000001c0: 4c82 8db6 0000 0000 0000 0000 4613 0fb9
000001d0: 0000 0000 0000 0000 c561 9f38 0000 0000
000001e0: 0000 0000 0000 0000 c561 9f38 0598 12b9
000001f0: b960 a3b8 d52c 1038 556b 8b39 0000 0000
00000200: 0000 0000 8fa6 6938 09f4 4236 0181 ec37
00000210: 4c82 8db6 0000 0000 0000 0000 0000 0000
00000220: c561 9f38 0000 0000 0000 0000 c561 9f38
00000230: 0000 0000 e663 83b7 cec4 12b9 93e9 3d39
00000240: f594 53b8 d48c e138 0000 0000 0000 0000
00000250: 0000 0000 49f4 8238 b19b 0db9 8488 afb6
00000260: d443 2c39 c561 9f38 14e6 4fb7 c4f2 ca37
00000270: a606 40b7 4c82 8db6 0000 0000 0000 0000
00000280: 0000 0000 ef85 8239 fd1e acb9 8bcb 2939
00000290: 0000 0000 0000 0000 c561 9f38 0000 0000
000002a0: 0000 0000 0000 0000 0000 0000 0000 0000
000002b0: 0000 0000 0000 0000 7d1b 9138 1e2d c337
000002c0: 9d89 9638 0000 0000 0000 0000 0000 0000
000002d0: 5ebd 3e38 a389 7db8 9c32 2439 2356 8e37
000002e0: 0000 0000 9490 81b6 85a8 19b9 8fc7 2639
000002f0: 44ad c238 bb12 9a37 264f 90b8 d48c e138
00000300: 0000 0000 0000 0000 eff3 b438 0000 0000
00000310: 0000 0000 0000 0000 9ec2 47b7 87f2 e8b8
00000320: 8e82 9337 b167 2d39 9639 3236 434e 2237
00000330: fb60 e4b6 0000 0000 6d2c 0039 b1a2 57b8
00000340: da69 b6b8 7424 f0b7 0000 0000 4487 19b9
00000350: cd76 81b8 b99b 2eb8 2fb8 f4b7 0000 0000
00000360: 0000 0000 3e65 7538 0000 0000 0000 0000
00000370: 33fd f838 0000 0000 0000 0000 0000 0000
00000380: 33fd f838 9c7b 0839 9181 d6b9 2f18 7b37
00000390: 5ea0 06b7 0000 0000 0000 0000 cd18 a038
000003a0: 3e41 d0b8 de94 66b9 2fb8 f4b7 0000 0000
000003b0: 0000 0000 0000 0000 33fd f838 0000 0000
000003c0: 0000 0000 33fd f838 0000 0000 e77b 94b8
000003d0: f4f8 55b9 1a67 b9b7 9eb2 d4b8 0e7d 0439
000003e0: 0000 0000 0000 0000 0000 0000 ca12 f238
000003f0: 4114 ee36 da69 b6b8 7424 f0b7 33fd f838

exp_avg_sq f4 [8, 102]
1.856955e-06 0.0 4.7722874e-06 3.9470893e-07 1.0612815e-06 1.0247243e-06 0.0 2.207612e-06
3.8465755e-06 3.4306228e-07 2.1339099e-07 0.0 0.0 1.8966089e-06 0.0 0.0
9.527086e-06 0.0 0.0 0.0 9.527086e-06 1.6750021e-06 5.9123126e-06 3.4642749e-06
3.8147746e-06 0.0 0.0 5.309229e-06 1.6017223e-06 6.028043e-06 2.1339099e-07 0.0
0.0 0.0 9.527086e-06 0.0 0.0 9.527086e-06 0.0 5.555678e-07
7.3829788e-06 1.8446779e-06 2.8748861e-06 4.2137376e-06 0.0 0.0 0.0 5.7166767e-06
2.649963e-06 1.0612815e-06 1.0247243e-06 9.527086e-06 2.207612e-06 3.8465755e-06 3.4306228e-07 2.1339099e-07
0.0 0.0 0.0 2.684105e-06 5.7918996e-06 6.8586405e-06 0.0 0.0
9.527086e-06 0.0 0.0 0.0 0.0 0.0 0.0 0.0
8.5588645e-06 2.9913479e-06 1.00806465e-05 0.0 0.0 0.0 4.7722874e-06 9.098998e-06
6.319873e-06 1.856955e-06 0.0 4.55053e-06 1.6729354e-06 1.8986942e-06 9.866253e-06 2.3903651e-06
4.16429e-07 4.2137376e-06 0.0 0.0 9.388235e-06 0.0 0.0 0.0
6.2365466e-06 8.344728e-06 2.7458384e-06 1.1050353e-06 5.712701e-10 2.1087622e-08 1.4439286e-06 0.0
4.0039363e-06 5.416166e-07 1.5923566e-06 1.8419482e-06 0.0 8.2478675e-07 1.1018897e-06 1.816494e-07
1.0203431e-07 0.0 0.0 1.6087217e-06 0.0 0.0 6.5293675e-06 0.0
0.0 0.0 6.5293675e-06 1.5973093e-06 2.8268503e-06 3.5135788e-06 2.9471241e-06 0.0
0.0 4.9922355e-06 1.997327e-06 3.292817e-06 1.0203431e-07 0.0 0.0 0.0
6.5293675e-06 0.0 0.0 6.5293675e-06 0.0 3.243503e-07 3.131405e-06 1.912327e-06
2.1900296e-06 4.0630916e-06 0.0 0.0 0.0 4.7495664e-06 2.4278306e-06 1.5923566e-06
1.8419482e-06 6.5293675e-06 8.2478675e-07 1.1018897e-06 1.816494e-07 1.0203431e-07 0.0 0.0
0.0 1.9624144e-06 5.1992542e-06 3.9277948e-06 0.0 0.0 6.5293675e-06 0.0
0.0 0.0 0.0 0.0 0.0 0.0 6.063069e-06 4.047888e-06
6.8630443e-06 0.0 0.0 0.0 4.0039363e-06 6.852191e-06 3.5414607e-06 1.4439286e-06
0.0 2.5100148e-06 1.5455613e-06 3.0783217e-06 6.8271065e-06 2.0855136e-06 1.4408046e-07 4.0630916e-06
0.0 0.0 6.425153e-06 0.0 0.0 0.0 2.893393e-06 3.8432127e-06
2.28253e-06 1.8541573e-06 4.8821763e-10 2.6246951e-09 2.1011842e-06 0.0 2.6849666e-06 5.935483e-07
2.2913475e-06 3.663512e-06 0.0 1.3226081e-06 1.1715437e-06 8.545693e-08 3.7732065e-08 0.0
0.0 1.5441731e-06 0.0 0.0 1.6449223e-05 0.0 0.0 0.0
1.6449223e-05 1.3300353e-06 5.4185602e-06 5.972541e-06 4.133225e-06 0.0 0.0 5.9689837e-06
3.114052e-06 5.0982226e-06 3.7732065e-08 0.0 0.0 0.0 1.6449223e-05 0.0
0.0 1.6449223e-05 0.0 1.5111692e-07 5.636093e-06 3.6425415e-06 4.119741e-06 2.313805e-06
0.0 0.0 0.0 5.9473964e-06 2.245631e-06 2.2913475e-06 3.663512e-06 1.6449223e-05
00000000: 7d3c f935 0000 0000 a321 a036 62e8 d334
00000010: 5b71 8e35 4289 8935 0000 0000 7c26 1436
00000020: d511 8136 1f2e b834 7820 6534 0000 0000
00000030: 0000 0000 fc8e fe35 0000 0000 0000 0000
00000040: 86d6 1f37 0000 0000 0000 0000 0000 0000
00000050: 86d6 1f37 a2d0 e035 6162 c636 ca7b 6836
00000060: aa00 8036 0000 0000 0000 0000 ee25 b236
00000070: c2fa d635 7f44 ca36 7820 6534 0000 0000
00000080: 0000 0000 0000 0000 86d6 1f37 0000 0000
00000090: 0000 0000 86d6 1f37 0000 0000 5422 1535
000000a0: 4ebb f736 a696 f735 2bee 4036 bb63 8d36
000000b0: 0000 0000 0000 0000 0000 0000 e1d1 bf36
000000c0: 05d6 3136 5b71 8e35 4289 8935 86d6 1f37
000000d0: 7c26 1436 d511 8136 1f2e b834 7820 6534
000000e0: 0000 0000 0000 0000 0000 0000 9320 3436
000000f0: 0a58 c236 4623 e636 0000 0000 0000 0000
00000100: 86d6 1f37 0000 0000 0000 0000 0000 0000
00000110: 0000 0000 0000 0000 0000 0000 0000 0000
00000120: 0b98 0f37 f7be 4836 0c20 2937 0000 0000
00000130: 0000 0000 0000 0000 a321 a036 e6a7 1837
00000140: 4c0f d436 7d3c f935 0000 0000 c1b0 9836
00000150: 9f89 e035 a3d6 fe35 3c87 2537 296a 2036
00000160: 9191 df34 bb63 8d36 0000 0000 0000 0000
00000170: 2a82 1d37 0000 0000 0000 0000 0000 0000
00000180: 8743 d136 5500 0c37 2545 3836 b950 9435
00000190: 8f07 1d30 2c24 b532 02cd c135 0000 0000
000001a0: 8d59 8636 9c63 1135 f5b8 d535 dc38 f735
000001b0: 0000 0000 ea66 5d35 a4e4 9335 680b 4334
000001c0: f51d db33 0000 0000 0000 0000 42eb d735
000001d0: 0000 0000 0000 0000 d716 db36 0000 0000
000001e0: 0000 0000 0000 0000 d716 db36 2163 d635
000001f0: ebb4 3d36 d3ca 6b36 35c7 4536 0000 0000
00000200: 0000 0000 fa82 a736 d109 0636 2afa 5c36
00000210: f51d db33 0000 0000 0000 0000 0000 0000
00000220: d716 db36 0000 0000 0000 0000 d716 db36
00000230: 0000 0000 5e22 ae34 2125 5236 8755 0036
00000240: 6cf8 1236 b155 8836 0000 0000 0000 0000
00000250: 0000 0000 775e 9f36 d0ed 2236 f5b8 d535
00000260: dc38 f735 d716 db36 ea66 5d35 a4e4 9335
00000270: 680b 4334 f51d db33 0000 0000 0000 0000
00000280: 0000 0000 06b2 0336 4175 ae36 80cb 8336
00000290: 0000 0000 0000 0000 d716 db36 0000 0000
000002a0: 0000 0000 0000 0000 0000 0000 0000 0000
000002b0: 0000 0000 0000 0000 5e71 cb36 18d3 8736
000002c0: 1a49 e636 0000 0000 0000 0000 0000 0000
000002d0: 8d59 8636 dfeb e536 d5a9 6d36 02cd c135
000002e0: 0000 0000 ba71 2836 1571 cf35 2a95 4e36
000002f0: 6614 e536 daf4 0b36 89b4 1a34 b155 8836
00000300: 0000 0000 0000 0000 a597 d736 0000 0000
00000310: 0000 0000 0000 0000 1d2c 4236 f2f4 8036
00000320: 912d 1936 5cdc f835 4333 0630 205e 3431
00000330: 1202 0d36 0000 0000 602f 3436 5454 1f35
00000340: 0dc5 1936 a8da 7536 0000 0000 7884 b135
00000350: ef3d 9d35 7284 b733 d80e 2233 0000 0000
00000360: 0000 0000 6241 cf35 0000 0000 0000 0000
00000370: 70fc 8937 0000 0000 0000 0000 0000 0000
00000380: 70fc 8937 aa83 b235 14d1 b536 bd67 c836
00000390: 22b0 8a36 0000 0000 0000 0000 2e49 c836
000003a0: 02fb 5036 6611 ab36 d80e 2233 0000 0000
000003b0: 0000 0000 0000 0000 70fc 8937 0000 0000
000003c0: 0000 0000 70fc 8937 0000 0000 b442 2234
000003d0: ac1d bd36 6372 7436 4e3c 8a36 de46 1b36
000003e0: 0000 0000 0000 0000 0000 0000 bf8f c736
000003f0: a6b3 1636 0dc5 1936 a8da 7536 70fc 8937

exp_avg f4 [8]
-0.00012572178 0.00015858686 -0.00015330937 -9.92144e-05 -0.00012500942 -0.00049658923 0.00013522708 -0.00040440893
00000000: 2fd4 03b9 564a 2639 acc1 20b9 5311 d0b8
00000010: f614 03b9 8a2d 02ba becb 0d39 d906 d4b9

exp_avg_sq f4 [8]
5.3372632e-06 3.5822166e-06 2.245466e-06 2.5419781e-06 0.00012054639 8.398882e-06 1.3469546e-05 2.6924614e-05
00000000: be16 b336 0366 7036 d0b0 1636 da96 2a36
00000010: dacd fc38 ece8 0c37 42fb 6137 2bdc e137
